cnn.pth (torch_old, 680877 bytes, 10 tensors)

conv.0.weight f4 [16, 3, 3, 3]
0	0xbe01e9e8	-0.12686884
1	0xbd4018e5	-0.04689874
2	0x3e008b05	0.12553032
3	0xbb81ebca	-0.003964876
4	0x3dbc5fe9	0.09197981
5	0xbe209194	-0.15680534
6	0xbc0a34e1	-0.008435459
7	0xbbc4fafe	-0.006011366
8	0x3e02ecb3	0.12785606
9	0xbe558364	-0.20850903
10	0xbda0b1e3	-0.07846429
11	0xbdb2d881	-0.08732701
12	0xbd5ebc05	-0.05437853
13	0x3da48270	0.080326915
14	0x3d93f2d1	0.07224048
15	0x3e49dcc2	0.19713119
16	0xbd3224b8	-0.04349205
17	0x3e03907c	0.12848085
18	0xbe3fe4e3	-0.18739657
19	0xbe2bc2e0	-0.16773558
20	0x3d9bd3c0	0.076087475
21	0x3e7cc6d5	0.24685223
22	0x3e5c19d6	0.2149423
23	0xbe29f33b	-0.16596691
24	0x3d53ee20	0.051740766
25	0x3e55b845	0.20871074
26	0xbe38593e	-0.18002793
27	0x3e654a07	0.2239152
28	0x3e33acd0	0.17546391
29	0xbd4dfc78	-0.0502896
30	0x3d92718e	0.07150565
31	0x3d44d1c6	0.048051618
32	0x3d1ee5e3	0.038793456
33	0x3df14412	0.117805615
34	0xbe4240d0	-0.18970037
35	0xbdb731d2	-0.08945049
36	0xbdf9a96a	-0.12190516
37	0xbe19e948	-0.15030396
38	0x3e0544c2	0.1301451
39	0xbe446f16	-0.19183001
40	0xbe1c2668	-0.15249026
41	0xbde51819	-0.11186237
42	0xbe1e5807	-0.15463267
43	0x3ddb5720	0.10709977
44	0xbe356409	-0.17713942
45	0xbd885339	-0.066564985
46	0x3e31411d	0.17309995
47	0x3e517526	0.20454845
48	0x3e02c0a2	0.12768796
49	0x3d4e33f5	0.05034252
50	0x3cae6190	0.021286756
51	0xbe02ec9b	-0.1278557
52	0x3ceb17ce	0.028697874
53	0xbe01080e	-0.12600729
54	0xbdd95041	-0.1061101
55	0xbd3a7c6b	-0.04552881
56	0xbb6dacf6	-0.0036266423
57	0x3e1aeab1	0.1512859
58	0xbc19f0ee	-0.009395821
59	0xbe0fa302	-0.14027026
60	0x3dbaecd4	0.09127203
61	0x3c6844c8	0.014176555
62	0xbe642af0	-0.22282004
63	0x3cb2f2b6	0.02184425
64	0xbd801ea4	-0.06255844
65	0x3e0b7c02	0.13621524
66	0xbd463fab	-0.048400562
67	0xbe4d2321	-0.20032932
68	0xbdc7b2dd	-0.09750912
69	0x3e6ac83d	0.22927947
70	0xbdb97111	-0.09054769
71	0xbe381097	-0.17975079
72	0x3da9010f	0.08252155
73	0xbe35738c	-0.17719859
74	0xbcabfc5a	-0.020994354
75	0xbd59ff4c	-0.053221986
76	0xbdedf386	-0.11618714
77	0xbca6b375	-0.020349244
78	0x3e1f7cba	0.15574923
79	0x3e55c841	0.20877172
80	0xbd2587a2	-0.040412553
81	0x3d199756	0.03749784
82	0x3d30c551	0.043156926
83	0x3e202f2e	0.15642998
84	0x3da03096	0.07821767
85	0xbd57e5e1	-0.052709464
86	0x3e3b4691	0.18288638
87	0xbdc6cde2	-0.09707238
88	0xbdc376bd	-0.09544132
89	0xbd89af4d	-0.06722889
90	0x3cccf1ed	0.025017703
91	0x3dd98008	0.10620123
92	0xbdfbab37	-0.12288516
93	0xbddecac3	-0.108785175
94	0x3d52ab9c	0.05143319
95	0x3e1b706b	0.15179603
96	0xbe0030fd	-0.12518688
97	0xbe2ddd0d	-0.16978855
98	0x3da0fb6f	0.07860457
99	0x3e34b1eb	0.17645995
100	0x3e1514f6	0.14558777
101	0xbd14bc4d	-0.03631239
102	0x3e198187	0.14990817
103	0xbdfe5ce2	-0.1242006
104	0x3e3ba57a	0.18324843
105	0xbd9b9b5d	-0.075979926
106	0xbd58890d	-0.052865077
107	0xbe252e58	-0.1613096
108	0xbd8e32c6	-0.06943278
109	0x3d5019e6	0.05080595
110	0x3e052801	0.13003542
111	0x3c02d9bd	0.007986483
112	0x3e6277f0	0.22116065
113	0x3c914d62	0.017737094
114	0x3e618313	0.22022657
115	0x3d5003c7	0.050784852
116	0xbd69b760	-0.057059646
117	0x3e367e22	0.17821553
118	0x3d4860ca	0.04892043
119	0xbd816eeb	-0.06319984
120	0x3e01a485	0.12660415
121	0x3c1702e2	0.009216996
122	0xbe2d1c97	-0.16905437
123	0xbe4fcf1d	-0.20293851
124	0x3cdcf75c	0.026973419
125	0x3e2bc6ef	0.16775106
126	0xbe0ba53f	-0.13637255
127	0x3ce88cb6	0.028387409
128	0x3d430a59	0.04761729
129	0xbe5d80e4	-0.21631199
130	0xbe7952f0	-0.24348044
131	0xbd21804a	-0.039428987
132	0x3d96ba1c	0.07359716
133	0xbe60152e	-0.2188308
134	0xbd41d89e	-0.047325723
135	0x3e0ff9f3	0.14060192
136	0x3daf3519	0.085550494
137	0x3e10a44b	0.14125173
138	0x3db5d2e0	0.08878112
139	0x3cfd95e7	0.030955268
140	0x3e0d18f4	0.1377905
141	0x3e0a8e93	0.1353095
142	0x3b75b2eb	0.0037490677
143	0x3e62cee9	0.22149242
144	0xbe4ea7c3	-0.20181184
145	0x3dadb51e	0.08481811
146	0xbc4647ed	-0.012102109
147	0xbcb84933	-0.022495842
148	0xbd8648af	-0.06556832
149	0xbadf6e85	-0.0017046487
150	0x3c3ad0f6	0.011402359
151	0xbe42782a	-0.18991151
152	0xbd32df28	-0.04366985
153	0x3dddbc84	0.10826972
154	0xbe53581c	-0.2063908
155	0xbd5e3249	-0.054247174
156	0xbe58cc42	-0.21171668
157	0x3cfd88d6	0.030949038
158	0x3d5d0b63	0.053965937
159	0xbe28ad81	-0.16472436
160	0x3d2e1844	0.04250361
161	0x3e09fb0f	0.13474678
162	0xbcc05aa1	-0.023480715
163	0x3e633ab6	0.22190365
164	0x3df70fe4	0.12063578
165	0xbd18d5f5	-0.03731342
166	0x3c1fb232	0.009747075
167	0x3d62aba7	0.05533948
168	0x3b9bd2e2	0.004755364
169	0xbe0e68fa	-0.13907233
170	0xbe0f9b9d	-0.14024206
171	0x3d92f488	0.07175547
172	0x3e1398a9	0.14413704
173	0xbba18c8e	-0.0049300855
174	0xbd0195e7	-0.0316371
175	0xbe27892c	-0.1636092
176	0xbe42bdd8	-0.19017732
177	0xbe0cff55	-0.13769276
178	0xbe1cdf25	-0.15319498
179	0x3db46774	0.088087946
180	0xbda6f7ff	-0.0815277
181	0x3e312908	0.17300808
182	0x3df8324f	0.121189706
183	0xbdc71eff	-0.09722709
184	0xbe0f340a	-0.13984695
185	0x3d2c6162	0.04208506
186	0xbc92680c	-0.017871879
187	0x3d7f3715	0.06230839
188	0xbd9c4a1e	-0.07631324
189	0xbde5d9ad	-0.11223159
190	0x3d4f329c	0.050585374
191	0xbe0c6f47	-0.13714324
192	0x3d5deba8	0.054179817
193	0x3c827687	0.015925659
194	0xbe3e1f28	-0.18566573
195	0x3bc3ee3d	0.005979328
196	0x3db0d13f	0.086336605
197	0x3e21cd0b	0.15800874
198	0x3e34b5b2	0.17647436
199	0x3e513061	0.20428611
200	0xbe476d1c	-0.19475216
201	0x3d88c34d	0.06677876
202	0xbe1b8ad9	-0.15189685
203	0x3e46d681	0.19417764
204	0xbe28fd26	-0.16502818
205	0xbdddcc99	-0.108300395
206	0x3e77ef4e	0.24212381
207	0x3b35d12a	0.002774308
208	0x3e3d2e46	0.18474683
209	0xbe0f4668	-0.13991702
210	0x3e001c7d	0.12510867
211	0xbe053707	-0.13009273
212	0xbdd2491c	-0.10267851
213	0xbe0d2983	-0.13785367
214	0xbe34e23d	-0.17664428
215	0x3d9d4474	0.07679072
216	0xbdafaff6	-0.08578484
217	0xbe267e34	-0.1625908
218	0xbe1018c4	-0.14071947
219	0x3dec121a	0.1152689
220	0x3d000603	0.031255733
221	0xbcd6f475	-0.026239613
222	0x3e187a7f	0.14890479
223	0x3d0d4d69	0.034497652
224	0xbe41d798	-0.18929899
225	0x3d059aba	0.032618262
226	0x3deae712	0.114698544
227	0x3d2a9d71	0.041654054
228	0xbe0e5900	-0.13901138
229	0x3c61824a	0.0137639735
230	0x3e00aa8b	0.12565057
231	0xbd1e537d	-0.03865384
232	0x3c9b4489	0.018953579
233	0x3d5b88fd	0.05359744
234	0xbd383afe	-0.044978134
235	0x3e2d0d02	0.16899493
236	0x3e2ba0a4	0.16760498
237	0x3de690a2	0.11258055
238	0x3dac4e31	0.08413351
239	0x3e1d44db	0.15358298
240	0x3da33303	0.07968714
241	0x3e3199f9	0.17343892
242	0xbda842c3	-0.08215859
243	0xbdc4cf96	-0.096099064
244	0xbe019ea3	-0.12658171
245	0xbdc2325d	-0.09482262
246	0xbe185583	-0.1487637
247	0xbe356b1d	-0.17716642
248	0xbda0ab90	-0.07845223
249	0xbe2eab40	-0.17057514
250	0xbe07ad7b	-0.13249771
251	0xbd923d68	-0.071406186
252	0x3dd67a89	0.104725905
253	0x3e6d01ce	0.2314522
254	0xbe110180	-0.14160728
255	0x3e00cc58	0.12577951

conv.0.bias f4 [16]
0	0xbc9e3bcc	-0.019315623
1	0x3db45953	0.088061
2	0x3e2f3b7d	0.17112537
3	0xbdc1ae54	-0.094570786
4	0xbdd67d4e	-0.10473119
5	0xbda8a237	-0.08234065
6	0x3e4bd4d2	0.19905403
7	0x3d4d5775	0.050132234
8	0xbe349d9c	-0.17638248
9	0x3caf431e	0.021394309
10	0x3d474bc3	0.048656236
11	0x3dccad63	0.099940084
12	0xbdea9d76	-0.114558145
13	0x3bbcc7f7	0.0057611424
14	0x3dea7335	0.11447755
15	0xbc3d0ee8	-0.011539198

conv.3.weight f4 [32, 16, 5, 5]
0	0xbcbca4e1	-0.02302784
1	0x3d85a1b5	0.06524984
2	0x3cf9b19d	0.0304802
3	0xba9cdbec	-0.0011967397
4	0xbe056f62	-0.1303077
5	0x3c0226bc	0.007943805
6	0x3d47af37	0.048751082
7	0x3d2ab884	0.041679874
8	0x3c260dc9	0.010135123
9	0xbd85e69e	-0.06538127
10	0x3c17ff8b	0.009277235
11	0x3d1ea7c7	0.038734224
12	0xbd79078c	-0.060798213
13	0xbce58d10	-0.028021365
14	0xbdf24d15	-0.118311085
15	0x3c216239	0.009850078
16	0xbc00443b	-0.007828767
17	0xbd097e18	-0.033567518
18	0xbd72c9fc	-0.05927466
19	0xbd8f4694	-0.069958836
20	0xbb325acb	-0.0027214761
21	0x3c0ab6c6	0.008466428
22	0xbd037e1b	-0.032102685
23	0x3d5d2b0b	0.053996127
24	0xbd2b2b61	-0.041789416
25	0x3d0c69cc	0.034280583
26	0x3c835f3c	0.016036622
27	0x3b1a1749	0.0023512414
28	0x3cf24bb7	0.02957712
29	0xbc0d95b2	-0.008641647
30	0xbc801e77	-0.015639527
31	0xbce2e478	-0.027696833
32	0xbcf649c3	-0.03006447
33	0xbd759d6c	-0.059964582
34	0xbc86ad94	-0.01644019
35	0xbc5e20ae	-0.013557596
36	0xbcc7fe66	-0.024413299
37	0xbbbdde05	-0.005794289
38	0xbc98382b	-0.01858147
39	0xbbb8f2ba	-0.0056441696
40	0xbc24f9bc	-0.010069307
41	0xbd24f3a2	-0.04027141
42	0xbdb2736e	-0.08713423
43	0xbd99c1de	-0.0750768
44	0xbd93dff2	-0.072204486
45	0xbd2956f5	-0.041342694
46	0xbd8079ba	-0.062732175
47	0xbd921dbb	-0.07134577
48	0xbc6bb6ad	-0.014386815
49	0xbdaa86b9	-0.083264776
50	0xbabbbecd	-0.0014323831
51	0x3b966965	0.0045902007
52	0xbdfa3cb5	-0.1221861
53	0x3cd34d83	0.025793796
54	0x3e2abfe6	0.16674766
55	0xbcd5d61b	-0.02610307
56	0xbbae889e	-0.0053263446
57	0xbd8aa0c5	-0.067689456
58	0xbdb26fd5	-0.087127365
59	0x3e2c1ffe	0.16809079
60	0xbcceeefc	-0.025260441
61	0xbca3a39b	-0.019975474
62	0xbd80623c	-0.06268737
63	0xbe1cb635	-0.15303881
64	0x3e3095a4	0.17244583
65	0xbc269205	-0.01016665
66	0x3d47b490	0.048756182
67	0xbdace54e	-0.08442174
68	0xbdc40f8f	-0.0957328
69	0x3e045e56	0.12926611
70	0x3c51fe17	0.012816927
71	0x3c0e540a	0.008687029
72	0xbda0729f	-0.07834362
73	0xbe27f10d	-0.16400547
74	0xbd06a36c	-0.032870695
75	0xbd4f4ff0	-0.050613344
76	0xbd2b475c	-0.0418161
77	0x3c07644c	0.008263659
78	0x3d2d31e2	0.0422839
79	0xbc8eb43c	-0.017419927
80	0x3c11f42d	0.008908314
81	0xbcfd4f54	-0.030921616
82	0xbd1a059b	-0.037603002
83	0x3cc69dff	0.02424526
84	0xbd35162e	-0.044210605
85	0x3cae5dd1	0.02128497
86	0xbcbfe622	-0.023425166
87	0x3c3529ba	0.011057312
88	0x3d7f847c	0.062382206
89	0xbc9d69e1	-0.019215526
90	0xbd9e2759	-0.07722349
91	0x3ce3a0bb	0.027786603
92	0x3b8618dd	0.0040923194
93	0x3c80afc8	0.015708819
94	0x3d0bfae5	0.03417482
95	0xbc127cd7	-0.008940897
96	0xbd1856c3	-0.037192117
97	0xbbeca10d	-0.007221347
98	0x3d3ee2b6	0.046602927
99	0xbc0c0b4a	-0.008547613
100	0xbda45399	-0.080237575
101	0x3ccdb7a6	0.025111984
102	0xbda4887e	-0.08033846
103	0xbdaf6fb4	-0.085662276
104	0xbda14c99	-0.07875938
105	0xbd92c8f8	-0.07167238
106	0xbd8ad880	-0.06779575
107	0xbd776d11	-0.06040675
108	0xbe3067d2	-0.17227104
109	0xbd971f1e	-0.07378982
110	0xbc87e62f	-0.016589252
111	0x3cfc38a5	0.030788729
112	0xbc856453	-0.01628319
113	0xbdfbf613	-0.12302794
114	0xbda5fc54	-0.081047684
115	0x3c790e5c	0.015201177
116	0x3d36e343	0.044650327
117	0xbd479500	-0.04872608
118	0xbd69d9fa	-0.057092644
119	0xbd5e9cf1	-0.05434889
120	0xbcb44c6e	-0.0220091
121	0xbc9aefda	-0.018913198
122	0xbd6b20c4	-0.057404295
123	0x3c022fb5	0.007945945
124	0xbcc48a0c	-0.023991607
125	0xbd37ef2e	-0.044905834
126	0x3d02c405	0.03192522
127	0x3b157bce	0.002280939
128	0x3d819082	0.06326391
129	0xbac4b311	-0.0015006979
130	0x3c8511c9	0.016243832
131	0xbb922a62	-0.004460619
132	0xbc7ae5ed	-0.015313608
133	0x3c23fb62	0.010008665
134	0x3b1a7578	0.0023568552
135	0xbd1464c7	-0.03622892
136	0xbc1eb0d8	-0.0096857175
137	0xbd2a1fce	-0.041534238
138	0x3da47b98	0.08031386
139	0x3b9f810d	0.004867679
140	0x3aa5e0fd	0.0012655553
141	0xbbf118d9	-0.0073576984
142	0x3b9b7151	0.004743733
143	0x3d5e41b2	0.05426187
144	0x3d8f62c3	0.07001259
145	0x3a436441	0.00074535987
146	0xbc90422f	-0.017609684
147	0xbd484885	-0.048897285
148	0x3da5348f	0.080666654
149	0x3cbf5ec5	0.02336062
150	0xbc0d57c4	-0.008626882
151	0xbc0353c8	-0.0080155805
152	0xbc53c96e	-0.012926443
153	0xbd33dafd	-0.043910015
154	0xbd246249	-0.040132795
155	0xb94fee59	-0.0001982985
156	0x391e7e3e	0.00015115083
157	0xbcdb72e3	-0.02678818
158	0xbd849a3e	-0.06474732
159	0xbc831573	-0.016001439
160	0xbcbf3822	-0.023342196
161	0xbd7aae12	-0.061201163
162	0xbc7474db	-0.014920439
163	0xbd237128	-0.039902836
164	0xbda46a70	-0.08028114
165	0x3d2a207f	0.041534897
166	0xbc47baed	-0.012190563
167	0xbdab169c	-0.08353922
168	0xbd23fa30	-0.04003352
169	0xbd9ec88d	-0.07753096
170	0x3c68a777	0.014200083
171	0xbd04f0e8	-0.03245631
172	0xbd0d5456	-0.034504257
173	0xbd8f7d25	-0.07006291
174	0xbdd133a7	-0.1021493
175	0xbc5754de	-0.0131427925
176	0xbcb20219	-0.021729516
177	0xbdd469b5	-0.103717245
178	0xbd3abdda	-0.045591213
179	0xbddce880	-0.10786533
180	0xbd1a3a77	-0.037653413
181	0xbd88a4e3	-0.06672075
182	0xbdd34c01	-0.10317231
183	0xbd9113be	-0.07083844
184	0xbd98501c	-0.07437155
185	0xbd3855c4	-0.045003667
186	0xbdb4fec2	-0.08837654
187	0xbdf8de2a	-0.121517494
188	0xbd76e0ac	-0.060272858
189	0xbdf3f63f	-0.11912202
190	0xbc8a19da	-0.01685803
191	0xbd45e51d	-0.048314203
192	0xbd5184de	-0.051152103
193	0xbda50d14	-0.08059135
194	0xbd7caa29	-0.061685715
195	0xbc7d4d6f	-0.015460356
196	0xbd7e492e	-0.06208151
197	0xbd155f1e	-0.036467664
198	0xbd484eb0	-0.048903167
199	0xbd592cce	-0.053021245
200	0xbdb9b46b	-0.09067615
201	0xb9f52f46	-0.00046765263
202	0xbd9ecd35	-0.07753984
203	0xbd70e089	-0.058807883
204	0xbd9dc819	-0.07704181
205	0xbd8dfdd6	-0.06933181
206	0x3b81d517	0.00396217
207	0x3c3216de	0.01086971
208	0xbb1a12e6	-0.00235098
209	0xbd9d2f13	-0.07674994
210	0xbd9739f3	-0.073841
211	0x3bcac4f3	0.006188029
212	0xbd470ba5	-0.04859509
213	0xbbadfe46	-0.005309853
214	0xbd033ef9	-0.032042477
215	0x3b3d6741	0.0028900655
216	0x3d13f526	0.036122464
217	0xbd030068	-0.03198281
218	0xbb23bfba	-0.0024986104
219	0xbae3877b	-0.0017359102
220	0xbd2be809	-0.041969333
221	0xbc8a349f	-0.016870795
222	0xbd030241	-0.03198457
223	0xbcc90922	-0.024540488
224	0x3cb03696	0.021510404
225	0x3d436013	0.047699045
226	0x3d9176f1	0.071027644
227	0xbd63a4a5	-0.05557694
228	0xbd96becf	-0.073606126
229	0xbe64da5e	-0.22348925
230	0x3e85120a	0.25990325
231	0x3e348761	0.17629768
232	0x3d0d6062	0.034515746
233	0xbd8badc9	-0.06820256
234	0xbe632c30	-0.22184825
235	0x3e784d1a	0.24248162
236	0x3e49a670	0.19692397
237	0x3dc5eb10	0.09663975
238	0xbe08d3e2	-0.13362077
239	0xbe862338	-0.26198745
240	0x3e8a440c	0.2700504
241	0x3e168561	0.14699318
242	0x3d1f039f	0.038821813
243	0xbdf6063f	-0.1201291
244	0xbe8a223f	-0.26979253
245	0x3e1e4122	0.15454534
246	0x3dcf07ad	0.10108886
247	0xbd279225	-0.04091086
248	0xbe486d94	-0.1957305
249	0xbeb211db	-0.34779248
250	0xbc1be243	-0.009514394
251	0x3dd49799	0.103804775
252	0x3d1bd907	0.03804877
253	0x3dc9b2c7	0.09848552
254	0x3e29f0e1	0.16595794
255	0xbcbfd810	-0.023418456

conv.3.bias f4 [32]
0	0x3d3b6fc1	0.045760874
1	0x3cb22328	0.02174528
2	0xbc3f3afe	-0.01167178
3	0xbca52877	-0.020160897
4	0xbd974ad4	-0.07387319
5	0x3d1c774b	0.038199704
6	0xbd495273	-0.049150895
7	0x3ca394d5	0.01996843
8	0x3c6ef3b6	0.014584472
9	0x3e17a997	0.14810787
10	0x3d625fb1	0.05526704
11	0x3d936841	0.07197619
12	0x3cc1ceb0	0.023658127
13	0xbdc3444d	-0.09534512
14	0x3bde3559	0.006781262
15	0xbcd7286d	-0.026264394
16	0xbdf9c1e9	-0.121951886
17	0xbd689632	-0.056783862
18	0xbc5f5be4	-0.013632748
19	0x3d05a2cb	0.032625955
20	0x3e3b3e45	0.18285473
21	0xbd13586f	-0.03597301
22	0xbc756d47	-0.014979667
23	0xbd4d6c2a	-0.05015198
24	0x3cdbaccd	0.026815796
25	0xbd65932c	-0.056048557
26	0x3d65c93b	0.05610011
27	0x3d423298	0.04741153
28	0xbcac20bc	-0.021011703
29	0xbc9d36f6	-0.019191246
30	0xbd7ad632	-0.06123943
31	0xbbfeeeb5	-0.007779921

fc.0.weight f4 [128, 1152]
0	0xbd03ab85	-0.032145996
1	0xbce13c49	-0.027494567
2	0xbafe7d4e	-0.0019416006
3	0xbc298ffc	-0.01034927
4	0xbcb0a17a	-0.021561373
5	0xbd3b8c42	-0.045788057
6	0xbd2ce040	-0.04220605
7	0xbce593c1	-0.028024556
8	0xbd26dffb	-0.04074095
9	0xbcad1033	-0.021125888
10	0x3cc60baf	0.024175493
11	0xbc85d42b	-0.016336521
12	0xbc3d03f8	-0.011536591
13	0xbbadf148	-0.005308304
14	0xbc5579a1	-0.013029487
15	0xbd3f9177	-0.046769585
16	0xbb57119d	-0.0032816895
17	0xbd470477	-0.048588242
18	0xbcaba920	-0.020954669
19	0xbc9d81a2	-0.019226853
20	0xbd53e972	-0.051736303
21	0xbcc4a069	-0.02400227
22	0x3c3c2c15	0.011485119
23	0xbcf2bd28	-0.029631212
24	0x3c08e4f5	0.008355369
25	0xbce62863	-0.02809543
26	0xbb7b5b62	-0.003835403
27	0xbcb87beb	-0.022520026
28	0xbc79f3ff	-0.015255927
29	0xbcae6bed	-0.021291697
30	0x3bc8b948	0.006125603
31	0x3c56bcc2	0.013106527
32	0x3c0c3264	0.008556936
33	0xbc7d2218	-0.015450023
34	0xbbb1628d	-0.0054133595
35	0x3caac3f6	0.020845395
36	0x3bbcbe32	0.0057599777
37	0xbd0f02b1	-0.034914676
38	0xbc8502b3	-0.016236639
39	0xbd21b501	-0.03947926
40	0xbc2590d0	-0.010105327
41	0xbc3c67e6	-0.011499381
42	0xbc8234ff	-0.015894411
43	0xbd621829	-0.055198822
44	0xbc8ee3dc	-0.017442636
45	0xbc6bd204	-0.014393333
46	0xbb1ccfae	-0.0023927498
47	0xbd0cd9e3	-0.03438748
48	0xbd2e6abc	-0.04258226
49	0xbc0b8d88	-0.00851763
50	0xbc14a988	-0.0090736225
51	0xbc212582	-0.009835603
52	0xbcdfbcb2	-0.027311657
53	0xbd32282c	-0.043495342
54	0x3c8de0f7	0.017319186
55	0xbc33c7bd	-0.010972914
56	0xbd13dce4	-0.03609933
57	0xbd53d9ad	-0.051721264
58	0xbd26e7ab	-0.04074828
59	0xbcab15b3	-0.02088437
60	0x3c42e624	0.01189569
61	0xbc8aa8e3	-0.016926235
62	0x3cbe0fba	0.023200858
63	0xbd688602	-0.056768425
64	0xbd3be2a3	-0.045870434
65	0xbd064089	-0.03277639
66	0x3cbf975c	0.023387603
67	0x3c09aa88	0.008402474
68	0xbcee89e7	-0.029118491
69	0xbc9f4bb3	-0.019445276
70	0xbce5fe9d	-0.02807551
71	0xbba277fd	-0.0049581514
72	0xbc17ec8f	-0.009272709
73	0xbb9c81ec	-0.00477623
74	0xbc9b7349	-0.01897587
75	0xbc957abd	-0.018247003
76	0xbc9473df	-0.018121658
77	0x3c7482c1	0.014923752
78	0xbc557dc1	-0.01303047
79	0xbcbaf5fd	-0.022822374
80	0x3c8d4a3e	0.017247315
81	0x3ad1f4d7	0.0016018403
82	0xbc85f454	-0.016351856
83	0x3bb4d1e9	0.0055181873
84	0xbc56555d	-0.013081876
85	0xbb15d41a	-0.0022862018
86	0xbc29880a	-0.010347376
87	0x3baa0114	0.005188117
88	0x3c48346a	0.012219528
89	0x3c807125	0.015678952
90	0xbcf1cef4	-0.029517628
91	0xbca93313	-0.020654237
92	0xbcc38559	-0.023867296
93	0xbce7ce16	-0.028296512
94	0xbcbb2e05	-0.022849092
95	0x3a16c29f	0.00057510467
96	0xbd4a7046	-0.04942348
97	0xbcb203b8	-0.021730289
98	0xbcf1aca6	-0.02950127
99	0xbce7f452	-0.028314743
100	0xbc2731a5	-0.010204707
101	0xbd209b9f	-0.03921091
102	0xbd280d1e	-0.041028135
103	0xbd034a97	-0.032053556
104	0xbc467ae0	-0.012114257
105	0xbbac23d7	-0.005253296
106	0x36fc3771	7.5166395e-06
107	0xbcbca1be	-0.023026343
108	0xbc3340f5	-0.01094078
109	0xbccfd73b	-0.025371185
110	0x3b57cd01	0.0032928588
111	0x3c95419a	0.018219758
112	0x3b565161	0.0032702314
113	0xbc98b4ce	-0.018640902
114	0xbc968fdd	-0.018379146
115	0x3cec6525	0.028856823
116	0xbd3fef1b	-0.046858888
117	0xbc9287ac	-0.017886959
118	0xbaded045	-0.0016999325
119	0x3b29669c	0.0025848513
120	0x3ba7cb88	0.0051206984
121	0xbb5721db	-0.0032826576
122	0xbd5b0595	-0.05347212
123	0xbd0c726c	-0.03428881
124	0xbc01f729	-0.007932463
125	0xbc6eb1dd	-0.014568773
126	0xbd110b85	-0.035411377
127	0xbcc9f742	-0.024654035
128	0xbd318d1e	-0.04334747
129	0xbd3a4fdf	-0.045486327
130	0xbc9d6ecd	-0.019217873
131	0xbc6e8ba4	-0.01455966
132	0xbd23e559	-0.040013645
133	0xbb2f5b0a	-0.0026757144
134	0x3b01ca04	0.0019804249
135	0xbd4174dc	-0.047230586
136	0xbcebd51d	-0.028788144
137	0xbd4a77f0	-0.049430788
138	0xbd300536	-0.04297372
139	0xbd0231f1	-0.03178591
140	0xbcc7fed2	-0.0244135
141	0xbbf30f5a	-0.0074176015
142	0xbcc4d8ff	-0.024029253
143	0xbc1f5eec	-0.009727221
144	0x3bfa6564	0.0076414812
145	0xbca2bd06	-0.019865524
146	0xbd357190	-0.044297755
147	0x3a1150a9	0.00055433303
148	0xbd56f7c5	-0.052482385
149	0xbcd4abc6	-0.025960814
150	0xbd2f3f6d	-0.042785097
151	0xbd55571b	-0.052085023
152	0xbbbd5840	-0.0057783425
153	0xbd1f06fb	-0.038825016
154	0x3b3064e0	0.0026915595
155	0xbca91aa5	-0.020642588
156	0xbc739e73	-0.01486932
157	0xbd1f6524	-0.038914815
158	0x3bf11b1c	0.007357968
159	0xbcd22634	-0.025652982
160	0xbad70f64	-0.0016407785
161	0xbc646455	-0.013939937
162	0xbc140a6c	-0.009035688
163	0x3a000800	0.00048840046
164	0x3cbe3e9f	0.02322322
165	0xb92b4580	-0.00016333722
166	0x3cc153af	0.023599474
167	0x3ac09dc0	0.0014695451
168	0x3a911dc0	0.0011071488
169	0xbc001434	-0.007817317
170	0xbb1b6988	-0.0023714025
171	0xbb5a29e0	-0.003328912
172	0x3c819f23	0.015822953
173	0x3cbace35	0.022803405
174	0x3c0f7f16	0.008758327
175	0xbc866470	-0.016405314
176	0x3b8a2ee4	0.0042170156
177	0xb9397e80	-0.000176901
178	0xbb9ada2c	-0.004725715
179	0xbcc5299d	-0.024067694
180	0xbd418bc9	-0.04725245
181	0xbd2724f6	-0.040806733
182	0x3bd46d8f	0.006482787
183	0xbaf49fa4	-0.0018663299
184	0xbb1e11f6	-0.0024119592
185	0xbd0e4925	-0.034737725
186	0xbc81a316	-0.015824836
187	0xbc49ab28	-0.012308873
188	0xbcd2d651	-0.02573696
189	0xbb29e617	-0.0025924498
190	0xbd0d236b	-0.034457605
191	0xbd18f2bf	-0.037340876
192	0xbc8c93fc	-0.017160408
193	0xbc9a1db4	-0.018812992
194	0xbd394d02	-0.045239456
195	0xbba9437c	-0.0051655155
196	0xbd0deddf	-0.03465068
197	0xbd2fac4e	-0.042888932
198	0xbbf44a51	-0.0074551483
199	0xbd087198	-0.033311456
200	0xbc965839	-0.018352615
201	0xbc0e4d03	-0.008685353
202	0xbd0d4f57	-0.034499492
203	0xbc1d85db	-0.009614433
204	0x3a504f2c	0.0007946368
205	0xbbcf9b15	-0.006335626
206	0xbd280ac1	-0.04102588
207	0xbd603a8a	-0.054743327
208	0xbd0e5d30	-0.03475684
209	0xbc7a4c9f	-0.015277057
210	0xbb240ba0	-0.0025031343
211	0xbcb9e275	-0.022690991
212	0xbd1ef7ad	-0.03881042
213	0xbd377ce0	-0.044796824
214	0xbb527622	-0.003211387
215	0xbca07f61	-0.019591989
216	0xbc66dfe3	-0.014091465
217	0xbc824ea5	-0.015906641
218	0xbaae4d86	-0.001329825
219	0xbc6b38b1	-0.014356778
220	0xba9e7089	-0.0012087981
221	0x39aa8b0c	0.00032528525
222	0xbbcefa34	-0.0063164476
223	0x3c9caea0	0.019126236
224	0x3bcec376	0.006309922
225	0xbc27580a	-0.010213861
226	0xbbea0432	-0.0071416134
227	0xbcef937c	-0.02924513
228	0xbcdd2b8d	-0.026998306
229	0xbd0d6b9a	-0.034526445
230	0xbd22e9d1	-0.039773766
231	0xbc52d457	-0.012868009
232	0x3ba3fd0b	0.0050045303
233	0x3c84c7b5	0.016208509
234	0xbc229690	-0.009923592
235	0xbb539055	-0.0032282074
236	0xbd2d7d71	-0.04235596
237	0xbd522a55	-0.051309902
238	0xbd0e6116	-0.034760557
239	0xbd15b643	-0.03655077
240	0xbcf048ec	-0.029331647
241	0xbbc390a1	-0.005968169
242	0xbd2009cf	-0.039071854
243	0xbd2f18db	-0.042748313
244	0x3b84fd2a	0.0040585
245	0xbc02fccb	-0.007994841
246	0x3ba3c47e	0.004997789
247	0xbc0a52ee	-0.008442624
248	0x3bb44eff	0.005502581
249	0xbc18e7ad	-0.00933258
250	0xbacf273e	-0.0015804542
251	0xbd0005b7	-0.03125545
252	0xbca04d06	-0.019567978
253	0xbd0b544e	-0.034015946
254	0xbccf1b4b	-0.025281569
255	0xbcd14923	-0.02554757

fc.0.bias f4 [128]
0	0xbd3a9cf3	-0.045559835
1	0xbbb2c887	-0.0054560336
2	0x3cb6ad0c	0.022299312
3	0xb9cf0a74	-0.00039489905
4	0x3ca54e9d	0.020179087
5	0x3c25d2af	0.010121032
6	0xbc5380dd	-0.012909141
7	0xbcd7bbb8	-0.026334628
8	0xbb7e94d1	-0.0038846026
9	0x3c294226	0.010330712
10	0x3d3663bd	0.04452871
11	0xbce17b55	-0.02752463
12	0x3de55aa2	0.111989275
13	0xbcdae28c	-0.026719354
14	0xbcb955ca	-0.022623915
15	0x3d63140d	0.055439044
16	0x3d48cc02	0.049022682
17	0x3ddd89e9	0.1081732
18	0x3c3f0c5a	0.01166066
19	0x3cd05d70	0.02543518
20	0xbcdc5dd0	-0.026900202
21	0x3c3294d4	0.010899741
22	0x3d234250	0.039858162
23	0xbc155d42	-0.009116473
24	0x3ddc47be	0.10755871
25	0xbd003e42	-0.031309374
26	0x3ddaa3f4	0.10675803
27	0xbcfc25bb	-0.03077971
28	0xbc73c0fa	-0.014877552
29	0x3d73fb9f	0.059566136
30	0xbcfa2099	-0.030533122
31	0xbbcd7e61	-0.006271169
32	0x3b310777	0.0027012506
33	0xbc8e8e01	-0.017401697
34	0xbcc0de67	-0.02354355
35	0x3d9460df	0.07245039
36	0x3d37a6bc	0.044836745
37	0x3c956197	0.018235011
38	0x3d504bf6	0.050853692
39	0xbd316904	-0.04331304
40	0xbd224f42	-0.039626367
41	0xbd0090df	-0.03138816
42	0xbbc124e2	-0.0058942894
43	0x3d6f7944	0.058465257
44	0x3d205e8c	0.039152667
45	0xbb2b1c3d	-0.002610936
46	0x3da30083	0.07959082
47	0xbbbd6bfc	-0.005780695
48	0x3c43210c	0.011909734
49	0x3d84dfbc	0.064879864
50	0x3b9c030c	0.0047611054
51	0xbd0a0a80	-0.03370142
52	0xbcfc8541	-0.03082526
53	0x3c94cbb5	0.018163541
54	0x3c1512bc	0.009098705
55	0x3d2b313c	0.041795
56	0xbd056f07	-0.032576587
57	0xbcae2426	-0.021257471
58	0xbc8aeee3	-0.016959613
59	0xbd0cd0aa	-0.034378685
60	0x3cb68d8d	0.022284294
61	0x3bfb5ed3	0.007671216
62	0xbd070e00	-0.032972336
63	0x3cdd3a1a	0.027005244
64	0xbd0c34e5	-0.03423013
65	0x3d63d8bd	0.05562662
66	0x3a12b9eb	0.0005597162
67	0x3c698dc4	0.014254991
68	0x3db062f6	0.08612625
69	0x3c481996	0.012213131
70	0x3cd65592	0.02616385
71	0x3c76be4f	0.015060022
72	0xbc7767fb	-0.0151004745
73	0x3c6a51a4	0.014301691
74	0x3c127a7d	0.008940336
75	0xbcd5810a	-0.026062507
76	0x3ca9bbfc	0.02071952
77	0x3d99f785	0.07517914
78	0xbd963d61	-0.07335926
79	0x3c643eb0	0.0139309615
80	0x3c8ebf46	0.01742519
81	0x3c717b1a	0.014738822
82	0x3b80056f	0.0039068977
83	0xbcac9142	-0.021065358
84	0xbcfe3a3b	-0.031033626
85	0xbc453c5d	-0.0120383175
86	0x3b809338	0.0039238
87	0x3ce1af46	0.027549397
88	0xbd06fc89	-0.03295568
89	0xbb2470f8	-0.0025091749
90	0xbcebba94	-0.02877549
91	0xbb080872	-0.0020756987
92	0x3ccfe0a3	0.02537567
93	0xbcb3eea9	-0.021964388
94	0x3df12077	0.1177377
95	0xb9a3bf95	-0.00031232522
96	0x3af83111	0.0018935521
97	0xbc4460d0	-0.0119859725
98	0x3e13a50d	0.1441843
99	0x3c922083	0.017837768
100	0xbcc8347a	-0.024439085
101	0xbc460b18	-0.012087606
102	0xbd5b10c2	-0.05348278
103	0xbcbcc0e2	-0.023041192
104	0x3d099091	0.033585135
105	0xbd0be233	-0.034151267
106	0x3d052bab	0.03251235
107	0xbd3c4b84	-0.045970455
108	0xbd6900e5	-0.05688562
109	0xbcb6aa35	-0.022297958
110	0x3c6d6584	0.014489535
111	0x3c167d57	0.009185157
112	0x3da2ec42	0.07955219
113	0x3d8c4846	0.068497226
114	0xbd2b904f	-0.04188567
115	0xbcb4f330	-0.022088617
116	0xbc1877fd	-0.009305951
117	0x3b9fe55b	0.004879636
118	0xbc84aac2	-0.016194705
119	0xbdbe0460	-0.09278178
120	0x3ca75ef6	0.020431023
121	0x3d1614cd	0.03664093
122	0x3b94b68f	0.0045383642
123	0x3dd5713a	0.10421987
124	0x3b88ef81	0.0041789417
125	0x3dcd7235	0.10031549
126	0xbc6def13	-0.014522332
127	0x3cb1274c	0.021625184

fc.2.weight f4 [64, 128]
0	0x3c0f2e15	0.008739014
1	0xba463805	-0.0007561448
2	0xbdb59b09	-0.08867461
3	0x3d5462a1	0.051851872
4	0x3d4a1773	0.04933877
5	0xbd4ce240	-0.050020456
6	0xbc351483	-0.011052254
7	0x3c855e09	0.016280191
8	0xbcaade63	-0.020857995
9	0xbc05a39b	-0.008156682
10	0x3d08468c	0.033270404
11	0xbd8ca65c	-0.06867668
12	0xbd8bb480	-0.06821537
13	0x3d851658	0.06498402
14	0xbd596706	-0.053076766
15	0xbd3a1e60	-0.045439124
16	0xbdbd2150	-0.092348695
17	0xbc1f4fc9	-0.009723612
18	0x3d8f8076	0.07006924
19	0xbd1175b8	-0.035512656
20	0x3b548bd3	0.0032431975
21	0xbd952338	-0.07282108
22	0xbb95cb7d	-0.004571377
23	0xbc7f4d31	-0.015582369
24	0xbdb40e54	-0.087917954
25	0x3d387360	0.045031905
26	0x3d649279	0.05580375
27	0xbac832d6	-0.0015273939
28	0xbdd83b52	-0.105581895
29	0xbd176965	-0.036965746
30	0xbcc0b69b	-0.023524573
31	0x3c4cc758	0.012498699
32	0x3c9e6b75	0.019338349
33	0xbd974405	-0.073860206
34	0xbbc062a9	-0.005871136
35	0xbd92e68f	-0.07172882
36	0xbdc27b43	-0.094961666
37	0x3d2308ee	0.039803438
38	0xbba9a9a9	-0.005177696
39	0xbdb6d3be	-0.08927105
40	0xbdb70eca	-0.08938368
41	0xbdcf3f56	-0.10119502
42	0x3cb8b589	0.0225475
43	0xbdaa1885	-0.08305458
44	0xbd3373fd	-0.043811787
45	0x3da8297d	0.08211038
46	0x3ce2e3c8	0.027696505
47	0xbd729a56	-0.059229217
48	0x3c0fa423	0.008767161
49	0xbcbbc65d	-0.022921735
50	0xbd9e2a57	-0.077229194
51	0x3c9cfc52	0.019163284
52	0xbdc7b637	-0.097515516
53	0x3d5175a4	0.05113758
54	0x3dab741c	0.083717555
55	0x3d5d9b0e	0.05410295
56	0x3ca849a0	0.02054292
57	0xbd46e9bb	-0.048562746
58	0x3d890965	0.06691245
59	0xbd9c73ed	-0.076392986
60	0x3ca795f1	0.02045724
61	0xbb8998e1	-0.004199133
62	0x3c8d28fa	0.017231453
63	0x3d1b9216	0.037981115
64	0x3c7dc57d	0.015488979
65	0xbdc0d231	-0.09415091
66	0xbdaddc54	-0.0848929
67	0xbd969a1c	-0.07353613
68	0x3b4c6afc	0.0031191697
69	0xbdb22bff	-0.08699798
70	0xbd3dcdc6	-0.04633882
71	0xbd81edf3	-0.06344213
72	0xbc612eae	-0.013744039
73	0x3c968d39	0.018377887
74	0xbdb3a713	-0.08772101
75	0x3d5dea30	0.054178417
76	0xbc992cd5	-0.018698135
77	0xbd7baeaa	-0.06144587
78	0xbb3c2aa8	-0.0028711949
79	0x3d49689d	0.049172033
80	0x3ce101c3	0.02746666
81	0xbda44d44	-0.0802255
82	0xbd85b717	-0.06529062
83	0x3d863e96	0.06554906
84	0xbc805e14	-0.01566986
85	0x3d9db10f	0.07699787
86	0x3cf8e987	0.030384792
87	0xbce7e768	-0.028308585
88	0x3d8b6d27	0.068079285
89	0x3d26b3ef	0.04069894
90	0x3cb1437c	0.021638624
91	0xbbcfdda7	-0.0063435617
92	0xbcb535f2	-0.02212045
93	0xbc78ccd6	-0.015185555
94	0xbd8a2bb4	-0.06746617
95	0xbcce3eea	-0.025176484
96	0xbd85bbc4	-0.06529954
97	0x3da6b830	0.081406
98	0x3d3fba0b	0.046808284
99	0xbdaae640	-0.08344698
100	0xbb9bf88b	-0.0047598532
101	0xbd57945c	-0.05263172
102	0xbccf0867	-0.025272561
103	0x3d714469	0.05890313
104	0xbcb64654	-0.022250332
105	0xbd3a3521	-0.045460824
106	0xbdabd6d4	-0.083905846
107	0xbd7f6966	-0.062356375
108	0x3ce0e788	0.027454153
109	0x3daa36ec	0.08311257
110	0x3b7a8dca	0.0038231486
111	0x3d17eb31	0.03708953
112	0x3d82ab6e	0.06380354
113	0xbd6cb4e0	-0.057789683
114	0x3c7c914c	0.015415501
115	0xbc87d0ec	-0.016579114
116	0x3d8a1462	0.06742169
117	0x3bf03977	0.007331069
118	0x3da057a1	0.07829214
119	0xbdc6a0f2	-0.09698667
120	0xbde9f2df	-0.11423277
121	0x3c9ea217	0.0193644
122	0x3d4bab4e	0.049723916
123	0xbc377c5b	-0.011199082
124	0xbc34b054	-0.011028368
125	0x3d789168	0.060685545
126	0xbd9a8568	-0.075449765
127	0xbdd43cff	-0.103631966
128	0xbd52786e	-0.051384382
129	0xbcad06b8	-0.021121368
130	0x3d07b1b2	0.033128448
131	0x3d2825db	0.041051727
132	0xbc23c7ed	-0.0099963965
133	0xbd885fda	-0.06658907
134	0xbd8504e3	-0.06495073
135	0xbcfcae03	-0.030844694
136	0xbd1ee2a3	-0.038790356
137	0xbda0c5b1	-0.07850207
138	0xbdad1201	-0.084506996
139	0x3d89d707	0.06730466
140	0x3e6365bc	0.22206777
141	0x3da8b8be	0.08238362
142	0xbcaa22d0	-0.020768553
143	0x3e25618c	0.16150492
144	0xbd61b637	-0.055105414
145	0xbdb470ee	-0.08810602
146	0xbc97b7fa	-0.018520344
147	0xbc7dd557	-0.015492759
148	0x3de3b4b4	0.11118451
149	0xbcbeed50	-0.023306519
150	0xbc049245	-0.008091514
151	0xbd68e820	-0.056861997
152	0xbdecc141	-0.11560298
153	0x3d814391	0.063117154
154	0xbd382f6c	-0.0449671
155	0x3d10bf12	0.03533847
156	0xbd600691	-0.054693762
157	0x3d28af0f	0.041182574
158	0x3d90d7cb	0.07072409
159	0x3d803bd9	0.06261415
160	0x3d1a65ce	0.037694745
161	0x3dd51c0f	0.104057424
162	0x3c7d0960	0.01544413
163	0xbd503c39	-0.050838683
164	0xbcaa81a2	-0.020813767
165	0x3b84d89f	0.0040541436
166	0xbca258a5	-0.01981766
167	0xbd937b6b	-0.072012745
168	0xbc1470c5	-0.0090600895
169	0xbd5439e9	-0.05181304
170	0x3d5fb666	0.054617308
171	0xbd61fd8f	-0.055173453
172	0x3d72ccf5	0.059277494
173	0xbcc00cf0	-0.02344367
174	0x3dd5fb0d	0.10448275
175	0x3d04a6b2	0.032385536
176	0xbd8ccb6b	-0.068747364
177	0x3da08b1e	0.078390345
178	0xbd05542a	-0.03255097
179	0xbd035649	-0.03206471
180	0x3de481a8	0.111575425
181	0x3d35ec13	0.04441459
182	0xbd996b5a	-0.07491179
183	0xbdcecb0f	-0.10097324
184	0x3d2dec72	0.04246182
185	0xbd15c384	-0.03656341
186	0xb9676600	-0.00022067875
187	0xbd0f8492	-0.03503854
188	0x3df1ae55	0.11800829
189	0x3c2f0ca0	0.010684162
190	0x3e542347	0.20716582
191	0x3d68a2e4	0.05679597
192	0xbccfab78	-0.025350317
193	0x3b3d72ce	0.002890754
194	0xbd7735e4	-0.06035413
195	0xbd21ec54	-0.03953202
196	0x3d0d1c40	0.03445077
197	0x3c58c498	0.013230465
198	0xbdcfa6a3	-0.10139205
199	0x3d19d9c6	0.0375612
200	0x3c9e9800	0.019359589
201	0x3df524ba	0.11969896
202	0x3b2bafc0	0.0026197284
203	0x3d747196	0.059678636
204	0x3ca93980	0.020657301
205	0x3cb6260f	0.022234945
206	0x3acbfc0a	0.0015562784
207	0x3cc779dc	0.0243501
208	0x3dc255ff	0.09489059
209	0x3dbebcc7	0.0931335
210	0x3da9c2e3	0.08289125
211	0x3cb80ce4	0.022467084
212	0x3db21e7f	0.08697223
213	0xbd87511a	-0.06607266
214	0xbd76325a	-0.060106613
215	0x3df303e7	0.11865979
216	0xbd1bf611	-0.038076464
217	0x3d89f539	0.06736226
218	0x3d29141c	0.041278943
219	0xbd58346e	-0.052784376
220	0x3de58fbc	0.11209056
221	0x3d307122	0.04307664
222	0x3de054e9	0.10953695
223	0xbd5c5f00	-0.053801537
224	0xbd545cf1	-0.05184645
225	0x3cdbca45	0.026829848
226	0x3e095622	0.13411763
227	0xbcbf2ca0	-0.023336709
228	0x3d463f04	0.04839994
229	0x3d5e841e	0.054325216
230	0xbd89926f	-0.06717383
231	0xbccef6d8	-0.025264189
232	0x3df09b39	0.11748356
233	0xbcd66284	-0.026170023
234	0x3c8bb90a	0.017056007
235	0xbd9c9031	-0.0764469
236	0x3d5497a6	0.051902436
237	0x3dbf8f76	0.09353535
238	0xbc70dd38	-0.01470118
239	0x3d76e2ce	0.06027489
240	0xbd06ff7d	-0.032958496
241	0xbdfe606f	-0.12420737
242	0xbe59f658	-0.21285379
243	0xbe022cab	-0.12712352
244	0xbdbcedac	-0.0922502
245	0x3be7fcd6	0.007079701
246	0x3d0c6983	0.03428031
247	0x3deb3116	0.11483972
248	0x3d8fc406	0.070198104
249	0xbd9f7a43	-0.077869914
250	0x3d3c06f1	0.045905057
251	0x3d207135	0.039170463
252	0x3d39a259	0.045320842
253	0xbbb410f7	-0.0054951864
254	0xbdcbf8cf	-0.09959566
255	0x3d230ba6	0.03980603

fc.2.bias f4 [64]
0	0x3c815363	0.015786832
1	0xbcd2a249	-0.02571215
2	0xbdc4f487	-0.096169524
3	0x3da77785	0.081770934
4	0x3d948b76	0.072531626
5	0x3da785c8	0.081798136
6	0xbda918a1	-0.08256651
7	0x3d850d02	0.06496622
8	0x3dc6f1dd	0.097141005
9	0x3d82f13d	0.06393669
10	0xbda88e2d	-0.08230243
11	0xbd97fd3f	-0.0742135
12	0x3db114c6	0.0864654
13	0x3ceda4f0	0.029009312
14	0xbdce3f33	-0.10070648
15	0x3d522a27	0.05130973
16	0xbd26fc2e	-0.04076784
17	0xbc9f4818	-0.019443557
18	0x3dea2f21	0.114347704
19	0x3d1b817d	0.037965287
20	0x3dbbfd62	0.09179188
21	0xbdb71626	-0.08939771
22	0xbc555ef0	-0.013023123
23	0xbca3e84d	-0.02000823
24	0x3e1094c3	0.14119248
25	0x3d3dac40	0.04630685
26	0x3daa1f31	0.083067305
27	0xbd2808c9	-0.041024003
28	0xbda29be0	-0.07939887
29	0x3d17d76c	0.037070677
30	0x3dad28bd	0.08455036
31	0x3d391a96	0.04519137
32	0x3d0bd4db	0.03413854
33	0x3daaa97b	0.08333107
34	0xbcc0786d	-0.023494923
35	0x3ccd675d	0.025073702
36	0xbd8b8767	-0.06812935
37	0xbb84a53f	-0.004048019
38	0x3daa8c76	0.08327572
39	0x3e470696	0.19436106
40	0x3d85b143	0.065279506
41	0xbc2f7dc9	-0.010711142
42	0x3c0500fb	0.00811791
43	0x3c9dcb20	0.019261897
44	0xbb0cd8be	-0.0021491493
45	0xbd8e6950	-0.069536805
46	0x3df41d1c	0.11919615
47	0xbd926dc7	-0.071498446
48	0xbd1a32f3	-0.037646245
49	0xbdb29675	-0.08720104
50	0xbd7bc26b	-0.06146471
51	0x3dd967a8	0.10615474
52	0x3d550f98	0.052016824
53	0x3d8f0af2	0.069845095
54	0x3e0c56f6	0.13705048
55	0xbde4bf7e	-0.11169337
56	0x3d662d66	0.05619564
57	0xbd6ad4b6	-0.057331763
58	0xbdc17261	-0.09445644
59	0x3dcd8a01	0.10036088
60	0x3cfaa2eb	0.030595263
61	0x3deef66a	0.116680935
62	0xbc523fcd	-0.012832594
63	0x3e26870c	0.16262454

fc.4.weight f4 [10, 64]
0	0x3d34e6db	0.044165473
1	0x3d1ec517	0.03876218
2	0xbdb077da	-0.0861661
3	0xbe458c0e	-0.19291708
4	0x3d5620c7	0.052277353
5	0x3d27484d	0.040840436
6	0x3de407cb	0.11134299
7	0x3dbea61c	0.093090266
8	0xbe13e07e	-0.14441106
9	0xbcf87e0d	-0.030333543
10	0x3d19d6c3	0.03755833
11	0x3d047bcd	0.032344628
12	0x3e29a17a	0.16565505
13	0xbe315bdd	-0.173202
14	0x3c880963	0.016606038
15	0xbe1e0f6f	-0.15435575
16	0xbc894ee7	-0.016761256
17	0x3db0e561	0.086375006
18	0xbe0e9631	-0.13924481
19	0xbd63b3de	-0.055591457
20	0xbe8bffbf	-0.27343556
21	0xbd88f3ae	-0.06687103
22	0x3dbbae6c	0.09164128
23	0xbddb80f4	-0.10717955
24	0xbe0633d6	-0.13105711
25	0xbe749f9c	-0.23889011
26	0x3e1ced5b	0.15324919
27	0x3e0ce528	0.13759291
28	0x3d29a925	0.041421074
29	0x3e32d5c5	0.17464359
30	0x3d82a1f3	0.063785456
31	0x3e0a72d8	0.13520372
32	0xbd18565e	-0.03719174
33	0x3d92ea66	0.07173614
34	0xbd098992	-0.033578463
35	0xbc7c1e97	-0.015388153
36	0xbda867d2	-0.08222927
37	0x3da70d3f	0.08156823
38	0xbe4a4bc6	-0.19755468
39	0xbc91f5a3	-0.017817324
40	0xbe58f568	-0.21187365
41	0x3e21e85e	0.15811297
42	0x3e7e6465	0.24842985
43	0x3d927263	0.07150724
44	0x3e0fa0ee	0.14026234
45	0xbd250287	-0.040285613
46	0xbde58ee1	-0.112088926
47	0xbd86dc9a	-0.06585045
48	0xbcd8f6be	-0.026484843
49	0xbd9d8393	-0.076911114
50	0x3dc9d214	0.09854522
51	0xbe29a0df	-0.16565274
52	0x3dc45b42	0.095877185
53	0x3e3a7e36	0.18212208
54	0x3dfdd37e	0.123938546
55	0xbda4622e	-0.08026539
56	0xbdab4f83	-0.08364775
57	0x3ccb1c64	0.024793811
58	0xbe0f92fa	-0.14020911
59	0x3caf06ee	0.021365609
60	0x3d21092f	0.0393154
61	0xbe1825a7	-0.14858113
62	0xbe4f80dd	-0.20264001
63	0xbd8135ab	-0.063090645
64	0x3cd5850d	0.02606442
65	0x3dcf614c	0.1012598
66	0xbe47ccd5	-0.19511731
67	0x3da0768e	0.078351125
68	0xbe851c6a	-0.2599824
69	0xbe451f3e	-0.19250199
70	0xbdf566a9	-0.119824715
71	0xbd84d42e	-0.064857826
72	0xbda982e2	-0.08276917
73	0xbda22f06	-0.07919125
74	0x3e058af1	0.13041283
75	0xbe048260	-0.12940359
76	0xbd68dcad	-0.056851078
77	0xbd1eec40	-0.038799524
78	0x3b8256d7	0.0039776373
79	0x3da75a1e	0.08171485
80	0x3cef541f	0.029214917
81	0x3d81fb87	0.06346803
82	0xbda94955	-0.0826594
83	0xbd037cc4	-0.032101408
84	0xbe002e29	-0.12517609
85	0xbd84fd6a	-0.064936474
86	0xbe8798fb	-0.26483902
87	0xbd9b865a	-0.07593985
88	0xbe2731e2	-0.16327623
89	0x3d1a4159	0.037659977
90	0xbe5a8fdb	-0.21343939
91	0xbd6d8bbe	-0.057994597
92	0xbcdc63b0	-0.026903003
93	0x3ac21418	0.0014807014
94	0x3e56cb08	0.20975888
95	0xbe238070	-0.15966964
96	0xbcb887f2	-0.022525761
97	0x3e2cc6e6	0.16872749
98	0x3dd837cf	0.1055752
99	0x3e152cd6	0.14567885
100	0xbdcf28df	-0.101152174
101	0x3d8925c0	0.06696653
102	0xb992686c	-0.0002792509
103	0xbea33d99	-0.31882933
104	0x3e1e3553	0.15450029
105	0x3e2c30cf	0.16815494
106	0xbd4a0ab2	-0.049326606
107	0x3e5db8b6	0.21652493
108	0xbc85b674	-0.016322352
109	0xbd125b89	-0.035731826
110	0xbe417767	-0.18893205
111	0x3d6c1d5b	0.057645183
112	0xbd4c3c99	-0.049862478
113	0xbdce27f7	-0.100662164
114	0x3dcba708	0.09943968
115	0xbdf54596	-0.11976163
116	0xbe3c60b7	-0.18396269
117	0x3d08dc2c	0.033413097
118	0x3d98b92d	0.074571945
119	0xbd84f080	-0.06491184
120	0x3e343c50	0.17601132
121	0xbd920d94	-0.07131496
122	0xbdd746ef	-0.105115764
123	0xbc9108f1	-0.017704459
124	0xbda499a4	-0.08037117
125	0xbcbad591	-0.022806915
126	0xbda96640	-0.08271456
127	0x3d7a786d	0.061150003
128	0x3d0a1b43	0.033717405
129	0x3be358cd	0.006938076
130	0x3ea3ca8c	0.31990469
131	0xbe1c7105	-0.15277489
132	0xbc37f903	-0.011228803
133	0xbe0bf5ff	-0.13668059
134	0xbbab6265	-0.0052302354
135	0x3db487dd	0.08814976
136	0x3e2ac04b	0.16674916
137	0x3e1ab754	0.15108997
138	0xbd6ad2b7	-0.05732986
139	0xbdb455a1	-0.08805395
140	0xbcf7adbd	-0.030234212
141	0xbe1a0005	-0.1503907
142	0xbdb5fc4f	-0.08886015
143	0xbdc5cddd	-0.09658406
144	0x3d8ff28b	0.07028683
145	0xbdf55536	-0.11979143
146	0x3e0be744	0.1366244
147	0x3e109331	0.14118649
148	0xbd22671f	-0.039649125
149	0xbd855b64	-0.06511572
150	0x3e1703bd	0.1474752
151	0x3d2d1e0f	0.042264994
152	0xbcfdc70a	-0.030978698
153	0x3d191a16	0.037378393
154	0x3d6e801f	0.058227655
155	0xbda9ac34	-0.08284798
156	0xbdddad48	-0.108240664
157	0x3d8ebf88	0.069701254
158	0x362043d8	2.3881348e-06
159	0x3defda21	0.11711527
160	0x3db59f0d	0.08868227
161	0xbe35a09e	-0.17737052
162	0xbe253115	-0.16132005
163	0xbd235c24	-0.039882794
164	0xbded853d	-0.11597679
165	0xbdaa0f4c	-0.08303699
166	0x3d69e003	0.0570984
167	0x3c13b3f1	0.009015069
168	0xbd5a1326	-0.053240918
169	0xbe032094	-0.12805396
170	0x3e55bba4	0.2087236
171	0x3e20e0f4	0.15710813
172	0xbda28bc0	-0.079368114
173	0x3d66918d	0.05629115
174	0x3b2e1361	0.0026561844
175	0xbd7ab7ab	-0.061210316
176	0xbdcc68bc	-0.09980914
177	0xbde10873	-0.1098794
178	0x3dbc3656	0.09190051
179	0xbe2f7cc9	-0.17137446
180	0x3d735c30	0.05941409
181	0x3d88017e	0.066409096
182	0x3d1beb01	0.038065914
183	0x3d3a2371	0.045443956
184	0xbd9cb663	-0.07651975
185	0xbd8bd755	-0.06828181
186	0x3c540eb2	0.012942957
187	0xbe2c8bc6	-0.16850194
188	0x3dfb309a	0.122651294
189	0x3deb3f3b	0.1148667
190	0xbe0131d2	-0.12616661
191	0x3cc6a100	0.024246693
192	0x3ddb02b0	0.10693872
193	0xbcd44bfd	-0.02591514
194	0x3db91a42	0.090382114
195	0x3e209da9	0.15685143
196	0x3d7405e0	0.059575915
197	0xbe280d7f	-0.16411398
198	0x3b83cf1b	0.0040224916
199	0xbdc1287d	-0.09431551
200	0x3c1656d8	0.009175979
201	0xbcd173b2	-0.025567863
202	0x3d49113a	0.049088694
203	0xbdcbb9e9	-0.09947569
204	0x3e27cb92	0.1638625
205	0x3db6c308	0.08923918
206	0xbdf0db70	-0.117606044
207	0xbe0b5abd	-0.13608833
208	0xbbb77ee0	-0.0055998415
209	0xbbd81911	-0.006594785
210	0x3e02ec0e	0.1278536
211	0x3e06b07d	0.13153262
212	0x3e12fc4b	0.14354055
213	0x3de17c5e	0.11010049
214	0xbdbe6836	-0.092972204
215	0x3d19ab7f	0.037517067
216	0x3dbb7f9b	0.09155198
217	0xbdb1aa8b	-0.086751066
218	0xbbe6ad0c	-0.0070396718
219	0xbd24a70a	-0.040198363
220	0xbde65bae	-0.11247955
221	0x3cabe7cf	0.020984558
222	0xbe178207	-0.14795695
223	0xbe47f907	-0.1952859
224	0x3dba9a16	0.09111421
225	0x3d0be169	0.034150515
226	0xbd1f4ef9	-0.038893674
227	0x3d767681	0.060171608
228	0x3bff30e9	0.007787813
229	0x3dc06b3b	0.093954526
230	0xbcdfdebb	-0.027327886
231	0x3db5f93a	0.08885427
232	0x3d944514	0.07239738
233	0xbe5a8fac	-0.21343869
234	0xbc9b06fc	-0.018924229
235	0xbe6fd129	-0.23419632
236	0xbe499d82	-0.1968899
237	0x3db29146	0.08719115
238	0xbd38cd50	-0.045117676
239	0x3de47543	0.111551784
240	0xbdd360a5	-0.10321168
241	0xbd6f18cb	-0.058373254
242	0x3d14d209	0.036333118
243	0xbcb3b58a	-0.02193715
244	0xbc419379	-0.011814945
245	0xbdf2355d	-0.118265845
246	0x3b6d1e5c	0.0036181426
247	0xbd8ca8a3	-0.068681024
248	0xbd2b459d	-0.041814435
249	0xbd77829d	-0.060427297
250	0x3cd576d8	0.026057646
251	0xbc260094	-0.010131974
252	0xbd8aad98	-0.06771392
253	0xbd769471	-0.06020016
254	0x3e1609ab	0.14652126
255	0x3d4d9cd3	0.050198387

fc.4.bias f4 [10]
0	0x3d2bdd22	0.041958936
1	0xbd56ffce	-0.052490048
2	0xbda7f42b	-0.08200868
3	0x3e13eaef	0.14445089
4	0x3e44b999	0.19211425
5	0xbd3febc3	-0.0468557
6	0x3bdc103d	0.006715803
7	0xbe41630e	-0.18885443
8	0x3e204277	0.15650354
9	0xbd619f4a	-0.05508355
