cnn.pth (torch_old, 680877 bytes, 10 tensors)

conv.0.weight f4 [16, 3, 3, 3]
00000000: 5e16 113d 2fae d9be be31 b4bd 3d67 e3be
00000010: 39a7 c3bd 0008 9e3e ff59 9dbd f837 043f
00000020: fa67 833e 51c6 19be ce52 a0be c4bf b0bd
00000030: d7d3 adbe ed3c 5cbe a7d4 483e b47a 79bd
00000040: ed7d b63e c734 803d 7d84 a93d 17f9 dbbe
00000050: c8ca f4bd 0219 e0be d650 83bd 3df8 d13e
00000060: 038b 1f3d 5485 ba3e dcd5 8e3e 0a64 12be
00000070: c520 21be a8c1 f43d 586f 8bbe eb2e f9be
00000080: 49bf 34be e043 27be d27a 86be 363b 2f3e
00000090: c3ec 633d 380b 6e3e 5bcf 5e3e 1628 ddbd
000000a0: d6c0 0cbe 4a3d 24be 5d70 11be 5f70 b8bd
000000b0: 653a d43b 83cd ba3e b73e 063e 2fca e03d
000000c0: 6dac 083d 89aa 9d3e c5e6 333d 56c4 4f3e
000000d0: 9060 9b3e e6ea 373e 7cb3 cfbd eec8 a7be
000000e0: 8bf1 b1be c8d1 5d3e 855c 0e3e f4d4 f93c
000000f0: 43b3 8a3e 914c a43e 69aa 833e e890 47be
00000100: 9cbc 9bbe 8327 b3be 7e4d c8bc 021b 323e
00000110: 68fb efbd 4df3 99be 4e64 46be 0956 61bd
00000120: 6367 8c3e e3b0 183e c2df 6a3e 2324 6b3e
00000130: 6f4b 323e 88e2 033d 79df 34bd 6e84 34be
00000140: 52ff 053e b52f 1abd bab0 913c 0c7c a5bd
00000150: 87d3 20be 9ab6 313e 6713 aa3e f39a 9cbd
00000160: 1c65 85be 5d2d 2d3e d11d ab3e c014 0e3e
00000170: c157 42be 193a 96be 176a 293e d6e4 063e
00000180: 0e82 20be 410b cbbe d818 e33d cabe 4f3e
00000190: d502 a33e ea21 a4be 7a46 37bd 18e2 b33e
000001a0: 171f c23d cc84 e6bd 8070 bbbe 43ef f7bd
000001b0: 3121 953d 9e48 033e f04b d1bd 5252 e63c
000001c0: 71de 89be 915a 4c3e 68eb c3be 3d36 093e
000001d0: cef5 723e 7e47 133e 6fc5 513a b99e b53d
000001e0: 5883 2e3e e7ea 98be 92ba 663e eaa8 40be
000001f0: 0975 123e 7cd0 b63e 9a97 91bd c4e0 11be
00000200: ac43 efbd 6562 39be 7c0c c3be 0a94 963e
00000210: 9ae4 d9be 9049 2c3c 1c94 5d3e d973 afbd
00000220: fe7c 4a3d b76e bebd aa63 873e ea22 8d3e
00000230: b30b 953e fd4f cb3d dd6c 5a3e 5c55 993e
00000240: 57ad f6bc aa44 89be 202e 08be 7214 9d3d
00000250: 776e f93d edcd 073e bfd9 f0bd b6c3 e3bd
00000260: b0c5 b13d 2525 8dbd 0f07 85be 6f58 8abe
00000270: fd25 dcbb 64d9 c13d ce96 22be a668 653a
00000280: ab3a 6cbd 6ef7 13be c097 713e fd57 713e
00000290: 9909 683e b79c f8bd 78d2 39bd 9d09 c8be
000002a0: 58bb b3bd de77 4abe 18ba 9a3d 30b1 a13d
000002b0: ddf2 fd3d 14bf 933e d024 9abd 24db 8f3c
000002c0: 6662 99be fffa 573d 7961 58be 0a87 20bb
000002d0: e9c3 cb3d 3016 7e3e 27b1 e63e 1ea3 d1bd
000002e0: 492a c73c 092e d1be c84b 073c 7f9e 7cbe
000002f0: cc22 bbbd e52e 73be 7242 be3d d369 143d
00000300: 2bfa 6a3d 790d 1f3e fbe9 0c3e 4c1e 97bc
00000310: 7eb6 a8bc 7195 783e 257d 47be 0d72 2c3e
00000320: 43a6 d53d 6bd3 73be aeea 6cbc 0057 873d
00000330: 0573 84be c3cc 053e 05da f6bd 7f0d a23d
00000340: bb73 a13d 41b5 7f3e af7f 4cbe 6bab 223e
00000350: 7dd6 293e 77db 9cbd 9ba2 853e e2e5 ed3c
00000360: 9abe 63be 8b32 32be abfb 0bbd 4915 13be
00000370: 0b65 ea3d 25fb 15bd b1fc 1a3e ed84 81bd
00000380: c5ef 153d cd51 7f3e 6063 a8bd 7cfd d7ba
00000390: a8da b83d 14f2 f43d 8d0c 793e c431 6c3e
000003a0: fb3b 333e 79b0 bbbd ce02 103e e64d 91bc
000003b0: 2f5f 4b3e a636 03be 4167 f4bd bc6f 54be
000003c0: a427 57be 85a3 0e3d 061e c13b 821e e9bd
000003d0: b543 883d 6514 76bd 1001 343e acee 0bbd
000003e0: a93f c5be 20b0 873e c652 70be bf89 b7bd
000003f0: 089e 1a3e 357b 0a3e 1060 19be e065 ea3e
0.03542172 -0.42515704 -0.0879855 -0.44414702 -0.095533796 0.3086548 -0.07683181 0.516479
0.25665265 -0.15017058 -0.31313175 -0.086303264 -0.33950683 -0.21507616 0.1961237 -0.060908034
0.3564295 0.062600665 0.08277223 -0.42963478 -0.1195274 -0.4376908 -0.064119026 0.41009703
0.03895093 0.36429846 0.27897537 -0.14295974 -0.15735157 0.119509995 -0.27233386 -0.48668608
-0.17651094 -0.16334486 -0.2626558 0.17112431 0.055645715 0.23246467 0.21758787 -0.107986614
-0.13745436 -0.16039005 -0.1420302 -0.09005808 0.0064766877 0.36484918 0.13109861 0.109760635
0.033367563 0.3079417 0.04392125 0.2028974 0.3034711 0.179607 -0.10141656 -0.32770485
-0.34754595 0.21662056 0.13902481 0.030497052 0.2708989 0.32089666 0.2571595 -0.19488871
-0.30417335 -0.34991083 -0.024451014 0.17393115 -0.11717874 -0.30068436 -0.193742 -0.05501369
0.27422628 0.14911227 0.2293692 0.22963004 0.17411588 0.03219846 -0.044158433 -0.17628643
0.13085678 -0.037643153 0.017784465 -0.08080301 -0.15705691 0.17354813 0.33217928 -0.07646742
-0.26053703 0.16911836 0.33421186 0.13875103 -0.18978788 -0.293412 0.16544376 0.13173231
-0.15674612 -0.39657024 0.11088723 0.20287624 0.31838098 -0.32057124 -0.044744946 0.35133433
0.09478586 -0.11255798 -0.36609268 -0.121061824 0.072817214 0.1282067 -0.10219562 0.028115425
-0.26927522 0.19956423 -0.38265538 0.13399597 0.2372658 0.14382741 0.0008002137 0.088681646
0.17042291 -0.29866716 0.22532108 -0.18814436 0.14302458 0.35705936 -0.07108994 -0.14245898
-0.11682829 -0.18103941 -0.38095462 0.2940982 -0.42557222 0.010515586 0.2163853 -0.08567018
0.049435608 -0.09298461 0.26443225 0.275657 0.29110488 0.09927366 0.2133059 0.29947937
-0.030111952 -0.268102 -0.13298845 0.07669915 0.121792726 0.13262148 -0.11760282 -0.11121313
0.08680284 -0.068918504 -0.25981948 -0.27020594 -0.0067183957 0.09465292 -0.1587784 0.00087512506
-0.057673138 -0.14449856 0.23593044 0.23568721 0.22659911 -0.12139266 -0.045366734 -0.39069834
-0.08775967 -0.19772288 0.07555026 0.07895124 0.12399838 0.2885672 -0.07526553 0.01756055
-0.29957885 0.052729603 -0.21130933 -0.0024494552 0.09949476 0.24813151 0.45057032 -0.1023619
0.024312155 -0.40855435 0.008257814 -0.24669836 -0.09137496 -0.23748358 0.09290017 0.036233734
0.057367485 0.15532483 0.13761131 -0.018447064 -0.020594832 0.24275757 -0.19481333 0.16840382
0.104321025 -0.23811118 -0.014460249 0.06608391 -0.25869003 0.13066392 -0.12053303 0.079127304
0.07883402 0.24971487 -0.19970582 0.15885703 0.16585727 -0.07659047 0.2610062 0.02904028
-0.22240677 -0.17402093 -0.034175556 -0.14363588 0.11445054 -0.036616463 0.15135457 -0.06324182
0.036605615 0.24933548 -0.08222079 -0.0016478742 0.0902608 0.11960235 0.24321194 0.23065859
0.1750335 -0.09164519 0.1406357 -0.01773734 0.19860528 -0.12813815 -0.119337566 -0.20745748
-0.21011215 0.034823913 0.0058934717 -0.11382772 0.06653539 -0.060078043 0.1757853 -0.034163162
-0.3852513 0.2650156 -0.23469076 -0.0896182 0.15099347 0.13523562 -0.14978051 0.4578085

conv.0.bias f4 [16]
00000000: e659 353d 3cb0 203d 2400 c8bc 8ede ab3c
00000010: cfce 453d 0e7a 32bd 8fff 233d 4d5c 80be
00000020: efa3 69bd 77eb 203e 1d39 98bc 2992 d7bd
00000030: af3e fd3c 5792 123c 3f6e efbe 50c0 583e
0.044275187 0.03923057 -0.02441413 0.020980146 0.04829293 -0.04357343 0.04003864 -0.2507042
-0.057041105 0.15714823 -0.018581921 -0.10525925 0.030913679 0.008946023 -0.467638 0.21167111

conv.3.weight f4 [32, 16, 5, 5]
00000000: b775 07bd a9e2 c7bc b2b2 b8bb 9e71 7939
00000010: 573b 27bd cfe1 cdbc f535 f63c f601 c3bc
00000020: 9418 91bd bae0 263c 60a6 db3c f8f9 56bd
00000030: c0f8 0e3a bc27 273b 371e 32bc 2f2c c43d
00000040: 3d0b aebc 1533 d2bc 707a 2ebd 84b8 5c3c
00000050: 4d10 05bd 5dee 2a3d d21a 96bd 172c 1dbb
00000060: 8904 16bc a82a 39bd 0dc0 e138 3aa9 653a
00000070: d9c1 85bc 24eb 033c 4697 4cbc b0a3 6dbd
00000080: 26c1 96bd fc88 b8bd 36c0 0bbd cd2f 93bd
00000090: b44b 13bd 2ad2 66bd 2c4e 27bc f45e e83b
000000a0: db8d 23bd 689e 933d 2af8 63bb a8bf 94bc
000000b0: 7d28 65bc bb1a 213d 7127 54bd cb9c 71bd
000000c0: bfd8 debc a08f d4bc 84c6 babc e267 b5bb
000000d0: f18a 00bd 9409 67bc c6af 45bd 3550 f8bc
000000e0: ce45 abbd 5411 103c 8e52 b5bd 6452 1fbd
000000f0: 2ba4 6abc c758 a8bd 3c1c 24bc 3d69 f2bc
00000100: cb5d a53a 07e1 01bd a73a 0a3c 85ef 373d
00000110: d012 33bd 7209 4abb 85a3 69bc 9714 6fbd
00000120: 3197 7bbd 72be 81bc e474 4abc cf7c 19bc
00000130: c834 333b 45eb 90bc 3f9d 29bd 2070 5fbd
00000140: 6290 273c b578 1bbd de28 0c3b 016d 30bd
00000150: 830c 53bd fae5 7a3c 0e3f f93b c43b 93bd
00000160: a173 73bd 9833 8bbd 6dac 74bc 5098 e8bc
00000170: 4378 3ebd 8f23 fabc 3d71 34bd f3e9 783d
00000180: a492 0a3c 50cc 873c fabc a6bc 4cc7 95bd
00000190: d839 8abc 33e4 1fbd 4f7e 4fbc e639 61bd
000001a0: 444b 0a3c a80b 60bd 1e28 28bd 003a 4cbd
000001b0: 4b9e 273c 0a3a e3bc 181c 7cbd f060 dbbc
000001c0: aab4 75bc 8533 083c 492b 23bd 9812 1abd
000001d0: 2f72 2cbc cfcd 9d3b 1efc 30bc cd28 85bd
000001e0: f926 363c ceeb 763c 8ffd e2bc 4665 14bd
000001f0: c0df f4bc cd1a 93bc ea14 a93c 25a9 8fbd
00000200: 922c 23bd 3452 65bd a8c9 93bd 6468 ecbc
00000210: a84a 53bd 9ab1 7cbd fa6c bf3a 38c1 c8bc
00000220: 5a87 94bd 14cc 253c f4ab 8bbd 63fe 6fbd
00000230: 5698 b1bc c681 28bb 3b5d 69bd cabd b9bd
00000240: f15a 9fbc 9360 97bd 17a4 d4bc 0568 71bc
00000250: ac5b 91bd 29b7 383b 1d10 c8bc 8da8 97bd
00000260: dc62 91bd 5408 0f3c db3e a1bd fceb f8bc
00000270: b572 79bd 9b85 5cbd ff68 3abc 5681 20bd
00000280: 3475 9f3c 6854 293d 5dd5 94bd 6bdd 28bc
00000290: c761 3dbd 32de 543d 6042 3ebd 4d58 213c
000002a0: 4b1b 83bd bec2 debc f5a9 b43c 903c 0b3c
000002b0: 3d97 13bd b8bb 8bbb d074 63bc 0b95 27bd
000002c0: 5194 b5bb 4068 f3bc 1c9b 89bd 36c0 87bd
000002d0: 85e2 06bd c5f6 b4bd 994e 27bd 969a 873b
000002e0: 396e 63bd ca0c 51bd b259 39bc 1580 8fbd
000002f0: 9199 4d3c e7da 8fbd 3492 403c 1c09 9abd
00000300: 371f 80bd 2e86 e0bc 7ba1 61bd 5380 63bd
00000310: 89cd 1dbd 5922 ba3b 61b7 b7bd 3da0 68bc
00000320: 9d5c 4ebd b1ba 203c fd64 5dbd 40f1 aebc
00000330: e2da 14bd 98de 8dbd 258a 99bc 11b3 a1bd
00000340: aa88 8ebd f860 cbbc ebdc 593c 5152 b3bc
00000350: 8149 2bbd 7e0b 73bd 487a cbbc 1794 d83c
00000360: cef8 a4bd 3028 97bd 6842 76bd c2fc 39bd
00000370: ba10 273b 8768 c9bc bba0 fabc e4f4 acbd
00000380: 5908 c33b 3cff 2ebd ebc1 a23c 478c 87bd
00000390: 02a9 afbb 662c f6bc 8b74 00bd 481d 06bd
000003a0: 4ebd 88bd a825 cabc cf59 29bd cca3 973c
000003b0: 648d a7bb aabf 0bbd 1fb1 2e3c 2f46 8abb
000003c0: 2270 923b 3979 493b a485 8cbd ec30 9fbd
000003d0: d650 c53b d186 8dbb a8c4 3fbd f606 54bd
000003e0: b532 993c cafe 5fbd 34de 28bd c520 bb3b
000003f0: 315f 6bbd 092c c9bc e000 3c3a a05a 8dbd
-0.033071246 -0.024400072 -0.0056365365 0.00023788816 -0.040828075 -0.025132088 0.030055026 -0.023804646
-0.07084766 0.010185415 0.026812732 -0.052484483 0.0005453937 0.0025505861 -0.010871462 0.0957874
-0.021245593 -0.025659123 -0.042597234 0.013471726 -0.03248625 0.041731227 -0.07329334 -0.0023982578
-0.009156355 -0.045206696 0.00010764608 0.00087608735 -0.016327785 0.008051667 -0.012487238 -0.058017433
-0.07361059 -0.09010503 -0.034118854 -0.07186852 -0.035960868 -0.05635277 -0.010211509 0.0070913974
-0.039930206 0.07207948 -0.0034785368 -0.018157795 -0.013986704 0.039332133 -0.051795427 -0.05898742
-0.027202962 -0.025947392 -0.022799738 -0.0055360654 -0.031382505 -0.014101405 -0.048263334 -0.030311683
-0.083629236 0.008793194 -0.08853637 -0.038896933 -0.014321367 -0.08220058 -0.010016497 -0.029591197
0.0012616453 -0.031708743 0.008436835 0.044906158 -0.043719113 -0.0030828384 -0.0142601775 -0.058369245
-0.061423484 -0.015837882 -0.01235697 -0.009368136 0.0027344692 -0.01769031 -0.041409727 -0.05455029
0.010227295 -0.037956912 0.0021386663 -0.043072704 -0.051525604 0.01531362 0.0076063937 -0.07189134
-0.059436444 -0.0679695 -0.014933688 -0.02839294 -0.04650141 -0.030534534 -0.044053305 0.060769986
0.008457813 0.016576916 -0.020353783 -0.073134035 -0.016873285 -0.039035987 -0.012664392 -0.054986857
0.008440796 -0.054698616 -0.041053884 -0.04986 0.010230611 -0.027737636 -0.06155023 -0.026779622
-0.014996687 0.008313064 -0.0398362 -0.03761539 -0.01052527 0.004815794 -0.010802297 -0.06501923
0.01111769 0.015070869 -0.027708797 -0.036229394 -0.029891849 -0.017957116 0.020639855 -0.07014684
-0.039837427 -0.055986598 -0.07216197 -0.028858371 -0.05158487 -0.06169281 0.0014604621 -0.024506196
-0.07252379 0.010119457 -0.06819907 -0.05859221 -0.021679085 -0.0025712117 -0.056973677 -0.090694025
-0.019452544 -0.07391467 -0.02595715 -0.014734273 -0.07097563 0.0028185344 -0.024421746 -0.074051954
-0.07098934 0.008730013 -0.07873317 -0.030385964 -0.06090041 -0.053838354 -0.011377572 -0.039185844
0.019465066 0.04134026 -0.07267258 -0.010306696 -0.046235826 0.051969714 -0.04645002 0.009847713
-0.0640169 -0.02719247 0.022053698 0.008498326 -0.036032904 -0.004264321 -0.013882831 -0.040913623
-0.0055413623 -0.029712796 -0.06719038 -0.06628458 -0.03293087 -0.0883613 -0.04084644 0.004138301
-0.05552504 -0.051037587 -0.011312889 -0.070068516 0.01254882 -0.07024174 0.011753608 -0.07521269
-0.06255954 -0.027407732 -0.05508564 -0.0555423 -0.03852609 0.005680364 -0.089705236 -0.01419836
-0.05038129 0.009810136 -0.054051388 -0.021355271 -0.036341555 -0.06927222 -0.01874263 -0.07895482
-0.0695966 -0.024826512 0.0132973 -0.021889837 -0.041818146 -0.05933713 -0.024838582 0.026437802
-0.08055268 -0.07380712 -0.060121924 -0.045407064 0.0025492148 -0.024585975 -0.03059422 -0.08445147
0.005951923 -0.04272388 0.019867858 -0.06618553 -0.0053607235 -0.030050468 -0.031361144 -0.03274277
-0.06676732 -0.024676159 -0.041345414 0.018510722 -0.0051132906 -0.034118332 0.010662346 -0.0042197923
0.0044689337 0.003074242 -0.068614274 -0.07773003 0.0060215993 -0.00431905 -0.046818405 -0.05176445
0.018700937 -0.054686345 -0.041227534 0.0057106935 -0.05746383 -0.02455713 0.0007171761 -0.06902051

conv.3.bias f4 [32]
00000000: 2ee8 7fbd 3bf8 27bb 5bd0 473f 85a0 40be
00000010: 8183 653e a1c2 febc 5211 40bd 77d4 04be
00000020: 7ba5 e63c 36a1 9dbe 71ce 27be 5507 2fbe
00000030: f7a3 6abd c589 803e 56c2 0cbd cc21 64bd
00000040: 5092 04be 36c9 9dbe aa6e e7bc e46c 96bc
00000050: 25e8 e3bc 4678 97be 4be1 9e3e 964b 1abe
00000060: 13ae 53bd 136f 5fbd 9d9c d83e 7a2d 8dbd
00000070: ba9f e5bc 51ef 453b 9322 6c3d 7f9c bfbe
-0.062477283 -0.0025630135 0.780523 -0.18811233 0.22413446 -0.031098666 -0.046891518 -0.12971674
0.02815508 -0.30787057 -0.16387345 -0.1709264 -0.057285275 0.2510511 -0.03436502 -0.055696294
-0.12946439 -0.30817574 -0.02825101 -0.01836247 -0.027820656 -0.2958395 0.3103126 -0.15067896
-0.051679682 -0.054549288 0.42306986 -0.068934396 -0.028030265 0.0030202458 0.05765016 -0.37424085

fc.0.weight f4 [128, 1152]
00000000: 04ec 283d a884 2c3d 19fa e93b c245 be3c
00000010: cfa5 883c 6964 d83c 0024 803b 8f85 a63c
00000020: f495 853d 01ee 323c 5e7f 093d 56e1 7c3b
00000030: 1d31 d2b9 126c 59bd f887 de3c 5c2c 1a3d
00000040: 9b52 233c 499b 513d 867f 31bd 6423 a0bc
00000050: b985 4ebd bfce 55bc 965d aebc ddc7 d8bb
00000060: 9fcd 4e3d f1b0 56bc 8c03 783d 033f 1ebd
00000070: 551b c73b 5ea6 553d b78f 93bc 1269 2ebd
00000080: 140a 7dbd becd 1d3d 2e07 c53c 0cf0 0a3c
00000090: 1faa 28be 9fe0 9ebe 72e9 babe 591c 983d
000000a0: 2ab3 da3d f287 0a3e 434d 03be 8c1a 0bbf
000000b0: 88b7 20bd 56b8 953d f278 0b3f a0ed 943d
000000c0: f690 04bf d91b febd 3f6f 7d3d 1054 073e
000000d0: e6aa 4dbd 1036 c4bc bda9 983d 34c8 0f3e
000000e0: 94f0 a0bd 5c15 26bd 8cbf c5bd db4c a03d
000000f0: 04fa 11be 3322 9ebe aba8 923d d7e7 c13d
00000100: e292 99bd 1a66 513d 3c7d 953d e14c 3e3e
00000110: 3e62 2abd 4d02 0f3e c736 6e3e 9419 2bbe
00000120: e9e4 723c 3e27 f23d 7d7a 273e 9776 e5bd
00000130: 4620 cd3d 1af1 853e f074 133e 3bc8 4f3e
00000140: e80e ac3e 19c2 973d 6c8b dc3c 32dc 40bc
00000150: 1b44 513e ffb6 073e 1c1f 9b3e eb71 c2bd
00000160: 6bf6 083e a52a 023e f7de 7a3e bf76 af3e
00000170: c4b1 e83e 5530 323e 4710 ff3b 7177 ccbd
00000180: 5430 4bbe fb4d 333d 1223 0a3e a240 253e
00000190: d6bd 173e 216d 1d3e 8323 21be 4168 343e
000001a0: a64f 30be e2e5 f23d 3889 b4bd 4031 fabc
000001b0: 8f26 373e 7b3c 373d c533 b13e e756 973d
000001c0: 0513 96be 2cfb 7f3e 2a63 233c dbaa 7cbe
000001d0: 6adb d0bd 9940 95be 50a4 82be fadd 83be
000001e0: 10d5 cf3e b3a6 eabb 9bf0 05bf 0df7 b33e
000001f0: b367 053d 8ef6 2abe 0182 6ebe 9753 3bbe
00000200: 316b c4bd b612 02be 6ecc 26be deed 8d3b
00000210: 1fb6 ccbd 81ec adbd d4d7 f0be 73bb a1bc
00000220: cd7e 2d3e 2c72 9d3c 2968 923e 1226 a83e
00000230: d819 1c3e 8fa4 623e 67ef eabd 310e 5fbb
00000240: f9d4 90be bb50 03be feb5 913e ac5d 8d3e
00000250: 3a57 853d 7d3f 6ebe 0ca1 0c3e e306 17be
00000260: e788 18be e892 9d3e 3173 a1bd 005e d73d
00000270: ed3a fd3c 7678 22be 1395 4d3e 8949 1ebd
00000280: 60e7 783e 131a 993d a96d 8fbd d4da c83d
00000290: 3a04 5f3d 62a6 c53d 83ba 103d c66f f93d
000002a0: ab92 7fbc d6a6 9b3e d696 8e3c 9122 873d
000002b0: a25d 2a3d b3ad 0cbe ddd5 b338 0b3e 31ba
000002c0: 4789 db3e b964 23be 4303 5f3d 7620 d5bd
000002d0: 91b1 993b b9f5 73bc e1ee 6ebc 46ff 9ebc
000002e0: 99c1 81bc 34fc 88bc 2037 9bbb a6d4 3d3b
000002f0: 9ac3 e9bb 3e22 70bc 6134 933c 70bf b6bc
00000300: 59fd 1abc 886d 153b 6c42 6bbc 9416 a23b
00000310: 6e8b 493c 60bf 87bc 0a83 7b3c 9610 d0bc
00000320: 4714 e53c 1628 58bc 997a e43c e4b4 c2bc
00000330: 467c 8dbc 471a ce3c 2d23 c33c 9f98 ba3b
00000340: 17ba 0dbb f12e 5bbc 1f64 c43c bf0b c13c
00000350: 90ee fa3a d42c 9a3b 65d2 cc3c 2cb6 d43b
00000360: c82d 11bc 1ac6 623a fd4c b8bc 90c0 833c
00000370: d029 e73b db47 083d 52cd 0e3d 3eee 543c
00000380: 3ea1 adbb f2c3 04bc e43c 87ba 9604 ce3c
00000390: 551d 5fbc 7419 d3bc 8adc 3abc 1616 34bc
000003a0: 645a a43c cdb7 013d 7358 613c 4b2c e439
000003b0: 27be 083d c0c7 fd3c 0bd1 023d 125c 3d3c
000003c0: 60b4 c7bb 69d4 57bc ad9d 983b 6436 073d
000003d0: 3741 aa3c ce97 913c b3d7 c33c f99a 94bb
000003e0: 11a1 35bc 1dba b33c 4aa9 0bbc d0d0 503c
000003f0: 7af3 48be 003b a9bd edf4 09bc f4cb 92be
0.041240707 0.0421187 0.0071404097 0.023226622 0.016680626 0.026415067 0.0039105415 0.020327358
0.06522742 0.010921002 0.033568732 0.003858646 -0.00040090914 -0.05308158 0.027164444 0.03763996
0.009968425 0.051173482 -0.043334506 -0.019548126 -0.050420497 -0.01304978 -0.02128486 -0.0066156224
0.050489064 -0.01310371 0.060550258 -0.03863431 0.0060762563 0.052160613 -0.018012865 -0.04258067
-0.06177719 0.03852629 0.024051275 0.008480083 -0.16471146 -0.31030747 -0.3650623 0.07427282
0.10678704 0.13528422 -0.12822442 -0.5433738 -0.03923753 0.0731055 0.5448142 0.07271886
-0.5178369 -0.12407655 0.06187367 0.13215661 -0.05021181 -0.02395156 0.0745425 0.14041215
-0.07858387 -0.040547714 -0.09655675 0.07827159 -0.1425553 -0.30885467 0.07161077 0.09468048
-0.07498719 0.051122762 0.07299277 0.18584014 -0.041597597 0.13965721 0.23263083 -0.16708976
0.014825084 0.11823891 0.1635532 -0.1120426 0.10015921 0.26160508 0.14400077 0.20291226
0.33605123 0.07410068 0.02692195 -0.011771249 0.20436136 0.13253401 0.30297172 -0.094943844
0.13375251 0.1271158 0.24499117 0.34270284 0.45448124 0.1740125 0.007783923 -0.09983719
-0.19842654 0.04377554 0.13489941 0.16137937 0.1481851 0.1537366 -0.15736203 0.17617895
-0.17217883 0.11860253 -0.08815235 -0.030541062 0.17885803 0.044735413 0.3460981 0.07389622
-0.29311386 0.24998158 0.009972373 -0.24674551 -0.101981 -0.29150847 -0.25515985 -0.25755292
0.4059224 -0.0071609854 -0.5232026 0.35149422 0.0325696 -0.16695616 -0.2329178 -0.18293606
-0.09590758 -0.1270245 -0.16288921 0.0043313345 -0.09995674 -0.08492375 -0.47039664 -0.019742703
0.16942902 0.01921948 0.28595093 0.32841545 0.15244234 0.22133087 -0.114714436 -0.0034035558
-0.28287485 -0.12823765 0.28459162 0.27610528 0.06510778 -0.23266406 0.1373331 -0.14748721
-0.14895974 0.30776143 -0.07883299 0.10515976 0.030911887 -0.15866265 0.20076399 -0.038644347
0.24307013 0.074756764 -0.07003338 0.09807363 0.05444739 0.09650876 0.03533412 0.12179522
-0.015598933 0.30400723 0.017405909 0.0659839 0.0415932 -0.13738136 8.57522e-05 -0.0006761259
0.42878172 -0.15956391 0.05444647 -0.10406582 0.004690357 -0.014890128 -0.01458332 -0.019408833
-0.015839385 -0.016721822 -0.004736796 0.002896586 -0.007133913 -0.0146566015 0.017969312 -0.022308081
-0.009459817 0.0022800881 -0.014359098 0.004946539 0.012301309 -0.016570747 0.015351066 -0.025398534
0.02796377 -0.013193151 0.02789049 -0.023767896 -0.017271172 0.025159014 0.023820484 0.0056944634
-0.002162581 -0.013377891 0.023973523 0.023565171 0.0019144583 0.004705051 0.025002668 0.006491443
-0.008861013 0.0008650735 -0.022497648 0.016083032 0.007054545 0.03327165 0.034863777 0.0129962545
-0.0052987626 -0.008103358 -0.001031783 0.025148671 -0.013617833 -0.025768973 -0.01140512 -0.010991594
0.020062633 0.031669427 0.013753998 0.0004352055 0.03338447 0.030979037 0.03193764 0.011557596
-0.0060945004 -0.013173201 0.0046574683 0.033010855 0.02078305 0.017772581 0.023906564 -0.0045350757
-0.0110857645 0.021939332 -0.008524248 0.012745097 -0.19624129 -0.082632065 -0.008420211 -0.2867123

fc.0.bias f4 [128]
00000000: 24bb 81be 5ac1 febb d091 64bd 373e b33d
00000010: 132c 92ba 62fb 90bd 1b8f 0d3c cd2f 5cbe
00000020: 9f2b 0d3c ef0c c53e bcda 203f 3b7e 323c
00000030: fd5f 8cbc 8689 4a3d 50a6 44bc df14 b8bc
00000040: 6bdb 9a3d 4b2f 113f 01ed 9a3c f61f 273c
00000050: eecf bfbc 485d 933e 12b6 fdbc 5468 73bb
00000060: 8a4c 593c 2f39 f4bb 362c b03e 874d 01bd
00000070: e4f8 14bd 52cb a53c 2f64 69bd 2390 1bbd
00000080: cb85 5abc 5558 1a3f 5980 d83c 5c20 853e
00000090: 328a 0cbe 4989 d03c c718 f7bc 305a 203c
000000a0: a8e1 693c 60e4 69bc 7104 4cbc 201a 003a
000000b0: f308 bdbc a64d 893d 7333 11be 4a6d ba3e
000000c0: 21e4 bcbc 0b86 e03d 6cbb 683e 21a6 31bc
000000d0: 997c 2cbd 360a 8abe b290 debe e50b e3bd
000000e0: 0d1f 4cbc cb64 b1bb 6d41 23bc a766 44be
000000f0: eb95 af3d 2073 b23d b726 cdbc 2f74 833e
00000100: b8f7 e8bc 469e 91bc 87e1 273c 3385 e4bc
00000110: 39d6 f8be af3f bdbc fddb 11bc e3aa 60bc
00000120: 2c6e 373c e356 783e da16 e6bc 346f 9f3e
00000130: 8bd6 653c f0b8 b9bc 1bd1 19bf 97f5 41be
00000140: 9296 7b3c ba84 873c b1a6 c6bc 5e03 dfbc
00000150: 4b49 a53e 4826 233b 6cbb 053e 672c a43c
00000160: b3f5 e2bc 23bc 623b f8a6 d9be 43ab 763e
00000170: 413d 49bc bbae e7bc d8a1 9cbb af67 f63d
00000180: ddf9 6dbd 5766 8ebb a331 1c3e f631 6c3b
00000190: 16d9 97bc 80f2 8fbe db58 56bd 21ec 01be
000001a0: cdc2 4dbd 0f06 61bc cc71 d9bc ed85 d5be
000001b0: 4af1 053f 0272 203d 17eb 0a3e 55e9 283c
000001c0: d981 53bc 4738 013c 19ce 01bc 0e6f 22bd
000001d0: 5700 febb 81d9 003f a38a 883b 996d ce3b
000001e0: d000 33bc 9000 39bd 31fe 62bc 5e00 f1bc
000001f0: e77f 8abc c3a0 a0bc a564 0dbd 1892 00bd
-0.2533809 -0.007774514 -0.05580312 0.08752101 -0.0011152051 -0.070791975 0.008640076 -0.2150261
0.008616357 0.3848643 0.6283376 0.0108943535 -0.017135615 0.04944756 -0.012002543 -0.02247089
0.07561382 0.5671279 0.01891184 0.010200491 -0.023414578 0.28782105 -0.030970607 -0.0037141042
0.013262877 -0.007453106 0.3440873 -0.031568076 -0.036370173 0.020238552 -0.05698031 -0.037979256
-0.013337563 0.60291034 0.026428388 0.2600125 -0.13724592 0.025456088 -0.030163182 0.009787127
0.014274992 -0.01427564 -0.012452231 0.00048867054 -0.023075556 0.067042634 -0.14179783 0.36411506
-0.023058 0.10963067 0.22727746 -0.010842831 -0.042111013 -0.26960915 -0.4346977 -0.11086253
-0.012458575 -0.005413627 -0.009964329 -0.19179784 0.085735165 0.087133646 -0.025042875 0.2567458
-0.028438434 -0.017775666 0.010246641 -0.027895546 -0.4860094 -0.023101656 -0.008902547 -0.013712618
0.011195701 0.24251895 -0.028087068 0.3113953 0.014028202 -0.022671193 -0.60084695 -0.18941341
0.015355723 0.016542781 -0.024249407 -0.027223285 0.3228248 0.0024894644 0.13059777 0.020040704
-0.02770505 0.0034597002 -0.425102 0.24088769 -0.0122826705 -0.02828156 -0.0047800355 0.12031495
-0.058099616 -0.004345696 0.1525331 0.0036040521 -0.018536132 -0.281147 -0.052330833 -0.12687732
-0.050234605 -0.013734355 -0.02654352 -0.4170374 0.523213 0.039171226 0.13566242 0.010309537
-0.012909376 0.007886953 -0.007922673 -0.03965669 -0.0077515054 0.50331885 0.0041669174 0.006299686
-0.010925487 -0.045166552 -0.013854549 -0.02941912 -0.016906692 -0.019607907 -0.03451981 -0.031389326

fc.2.weight f4 [64, 128]
00000000: 58ae 66bd 2403 88bd d145 833d 3190 99bd
00000010: e048 c73c de4a 89bd 60fe 293b 6978 90bc
00000020: e949 12bd f840 5cbd 4d75 5c3d 8f55 a93d
00000030: 3439 90bd e7cf 7bbd d876 0e3c 2e0e e5bc
00000040: ce17 7a3d 8007 0dbd 53b9 62bd 6722 893d
00000050: 20c2 863b 622c d2bd 1914 4abd 6d0c a6bd
00000060: 3dcc 853d 6e9a 033d 2f39 98bc dc71 a1bc
00000070: 0a16 3dbc c06f 7e3c b9aa 893d 1a77 653d
00000080: ace4 94bc 066c eabd 1f18 b3bc a80c abbd
00000090: 05d9 86bd 00b6 c5ba 89aa 94bd 5a68 86bd
000000a0: bd86 ad3d 0819 a83c 0123 61bd d8f9 63bc
000000b0: 41de 2cbd e39f 1bbd 488a bbbb 483f afbd
000000c0: bb91 35bd d8c8 84bd 8b83 cbbd c224 84bd
000000d0: efb9 98bd 482f 903c 5b3b b9bd 7ca0 56bd
000000e0: 0bfc ac3d 284f a3bd 20da 96bc e138 aabd
000000f0: 16ea 67bc fa79 90bd 0017 8e39 706b f93c
00000100: 3f36 a63d dab1 353d d818 40bd 1064 82bb
00000110: cff6 81bd e05e ae3c 0af9 64bc 7025 f13b
00000120: 70b2 fa3b 0619 84bd a278 71bd f592 263d
00000130: 2d14 813d 212f b33d fa44 28bd c58b 3abd
00000140: 377c a03d 5917 b13d 68c2 82bd c3d9 25bd
00000150: fa0a 65bc d8bb f03c c71d 673d c2cf 5a3d
00000160: 0a39 083d 5000 f0bb 61f5 043c fdea d2bd
00000170: a0e8 1ebd 5a22 6bbd 1a85 91bd 56ac abbd
00000180: a270 45bd 63a2 b13d 41b4 3abd 9818 a5bd
00000190: ac1b a2bd 2c63 eabd 4020 5c3c ae08 b1bd
000001a0: 26fd 023d 86bd 61bd a2b9 aabd c1a3 d0bd
000001b0: d6b9 973c df2b d2bb 02da d7bd f8dc b93c
000001c0: 9c69 f73c ee71 783d 9854 463c f0c1 67bc
000001d0: 0822 ba3c 8a92 433d e0fe 1c3b 9cc7 aabd
000001e0: d07e 9f3b 106d b13c 8feb 5cbd 90b8 6f3c
000001f0: e043 133b b605 b1bd 1c10 cbbc 009f 843a
00000200: 012c 483c c778 8dbd c55a 033e 5a6a 863d
00000210: d3fb 8cbd d8d7 f93c cf34 a53d da79 2bbd
00000220: 9a1c a8bc 5b44 d6be db00 14bf 3343 3dbc
00000230: 27c3 3cbc 4d7a 353e d7ef 18bd 3d7f a1ba
00000240: d4e4 86be dbad 383e 3cd1 66bc 9283 dc3c
00000250: 3424 ed3c d57b 56be dca5 7abc b6ba 383d
00000260: 007c a03d af0d a2bd 023d d1be e56a a9bd
00000270: b30e d53e d418 87bd 015e 5cbd e537 f0ba
00000280: 1ae1 75bc 24b2 313e 548e 38be cfb0 293e
00000290: 236c c33e 8042 f63e 68f6 f6bd facd a1bd
000002a0: 4bf3 f5bc dd86 73bd e887 9f3c 476e 713d
000002b0: 1810 2c3d 3de0 ccbd 832f e33c ea8a d43e
000002c0: 0829 d3bb 1473 9b3e 06d0 ee3d 3773 0bbb
000002d0: a8d3 453d 89b1 873e 0aaf 8abc 90c7 d3bd
000002e0: ed85 4bbd 6c9a 88be 84c9 d3bc 6d9b b23e
000002f0: be3c e3bc 9f8f 16be 4241 083c 8c27 96be
00000300: 3009 c03d 13a6 9c3c c28b 81bd db48 043d
00000310: 9508 b1be 053f 213c fe58 a5be ddc1 a1bd
00000320: 1d94 3cbd 9cbe 94be cbef 93bd 31fd 873e
00000330: 00ea a33d 6f92 4dbd fa76 933d e9f8 21be
00000340: 8c35 cbbc 6cfc 523d 812e af3c afd1 02bc
00000350: f120 1e3e 3118 9ebb f45c 9a3e 5a3d 8d3d
00000360: 07ca 61bd 4451 5ebb c977 c33e 54a9 1b3e
00000370: 38db b0bc a34f 093d bbdb 99bd 5cfd 11bc
00000380: 0e27 59bc 80bb 5f3d 2920 b4be 8313 4cbe
00000390: 4059 a93d b5de d2bd 042c c33c 0a45 5fbe
000003a0: 3e0d a0bd 2d00 073f c075 97bd bb44 91bd
000003b0: 8652 a33e c5ef 91bd a233 8c3e e252 9a3d
000003c0: 79a4 2ebb 4b61 6dbd 44d0 3ebd eadd 383d
000003d0: 20af 193d 9bb8 1b3e 7095 303d cb4b 07bd
000003e0: ebfc 0dbc 2f8a 87bd 16fc 833c 6aee 2dbd
000003f0: eb91 3cbd b045 3cbd 827f 3d3d 7cc9 d0bd
-0.05631861 -0.06641224 0.06409801 -0.074982055 0.024326742 -0.06703733 0.0025938973 -0.017635541
-0.035715017 -0.053772897 0.053822804 0.08268272 -0.07042161 -0.061477568 0.008695327 -0.027960863
0.06105786 -0.03443098 -0.05535252 0.06696015 0.004112497 -0.102623716 -0.049335573 -0.08107839
0.06533096 0.032129698 -0.018581955 -0.019707613 -0.011540899 0.015529573 0.06722016 0.056021787
-0.018175445 -0.11446385 -0.021862088 -0.08352023 -0.06584362 -0.0015084147 -0.072590895 -0.06562872
0.08472965 0.020519748 -0.054965023 -0.013914548 -0.042204145 -0.037994277 -0.0057232715 -0.08556992
-0.044328433 -0.064836204 -0.09937199 -0.064523235 -0.07457339 0.01760067 -0.09044524 -0.052399144
0.08446511 -0.07974082 -0.018414557 -0.0831163 -0.0141549315 -0.07054515 0.00027101487 0.030446738
0.08115815 0.044359066 -0.046898693 -0.0039792135 -0.06345903 0.021285474 -0.013975391 0.007359199
0.007650666 -0.06450085 -0.058952935 0.040667493 0.06302676 0.087492235 -0.041081406 -0.04554345
0.07836192 0.08647031 -0.06384736 -0.040490877 -0.013979668 0.029386446 0.056424882 0.05342079
0.03325752 -0.007324256 0.0081151435 -0.10298727 -0.038796067 -0.057405807 -0.07105465 -0.0838248
-0.04820312 0.08673551 -0.04558206 -0.080613315 -0.07915434 -0.11444697 0.013435423 -0.08644234
0.031979702 -0.055112384 -0.08336188 -0.101874836 0.01852123 -0.0064139212 -0.105396286 0.022688374
0.030201726 0.060655527 0.01210513 -0.014145359 0.022721305 0.047747172 0.0023955628 -0.08338854
0.004867412 0.02165845 -0.053935584 0.0146314055 0.0022470877 -0.086436674 -0.024787955 0.0010118186
0.012217523 -0.06907802 0.12827595 0.06563254 -0.06883969 0.03049843 0.08066713 -0.041864254
-0.02052145 -0.41849026 -0.57813805 -0.011551666 -0.011521137 0.17722435 -0.037338104 -0.0012321245
-0.26346457 0.1803507 -0.014087971 0.026918206 0.028947927 -0.20945676 -0.015298333 0.045099936
0.07836151 -0.07912766 -0.40866858 -0.08272342 0.41612777 -0.065965325 -0.053800587 -0.0018327205
-0.015007282 0.17353112 -0.18023044 0.16571353 0.3816844 0.4809761 -0.12058717 -0.07900615
-0.030023238 -0.059454788 0.019473985 0.05894306 0.042007536 -0.100037076 0.027732616 0.41512233
-0.0064441003 0.30361235 0.11660771 -0.002127839 0.048297554 0.26502636 -0.016929168 -0.10340798
-0.04968827 -0.26680315 -0.025852926 0.34884205 -0.027738925 -0.14703225 0.00831634 -0.29327047
0.093767524 0.01912216 -0.06325485 0.032296043 -0.3457686 0.009841685 -0.32294458 -0.078983046
-0.04603969 -0.29051673 -0.07223471 0.26560357 0.08003616 -0.050188478 0.07200427 -0.15817608
-0.024805807 0.05151026 0.02138448 -0.007984563 0.15442254 -0.004824661 0.30149043 0.068964675
-0.05512431 -0.003392295 0.38177326 0.15201312 -0.021588907 0.033523213 -0.075126134 -0.008910503
-0.01325394 0.054622173 -0.35180786 -0.19929318 0.08268976 -0.10296384 0.0238247 -0.2180368
-0.07815026 0.52734643 -0.07395506 -0.070931874 0.31898898 -0.071258105 0.27383143 0.0753534
-0.0026648326 -0.057954114 -0.046585336 0.04513351 0.037520528 0.1520714 0.043111265 -0.033031266
-0.008666257 -0.06618153 0.016111415 -0.042463697 -0.046037596 -0.045964897 0.04626418 -0.1019468

fc.2.bias f4 [64]
00000000: 8059 19bd b84e b23c 7fa8 1a3f 8079 f63e
00000010: 53b6 843d c472 e53d 3b05 83be f276 853e
00000020: b631 933e 7afc 343e c24e afbe faff 01be
00000030: b0b3 c9bc 5a6f cd3e 47e8 62bc 955a aa3d
00000040: 30f5 f63e 845b 0f3e 18df f33d dc10 ebbd
00000050: 8daf 003e d7f1 a2be 2b91 cebc 2522 6f3e
00000060: 8d8e 08bf da59 f03d 76b4 a1be f359 683e
00000070: 1bb0 4f3d 6f03 ab3d eb24 34be 2498 163f
00000080: a5b1 1fbd b15e 29bd 9cff 8c3e 9417 41bd
00000090: f492 f23d e494 803d 71ea fe3e 96b6 1b3e
000000a0: 8c8b de3d bb2e 93bd 1fd3 7bbe 6157 9c3e
000000b0: 31ae b3be d3a2 ad3d 17f7 f1bc dfc7 e53e
000000c0: 81ee fdbc daee 10be 3539 5ebc 88df 0f3f
000000d0: 2e7b cc3e 7c59 ca3e 4874 5f3d 6e87 143e
000000e0: 14dc 91bc 3ea1 be3e 1119 f33e 2a33 443d
000000f0: a8d5 8abc 9486 3d3e a9fd d4bd cba2 bcbe
-0.03743887 0.021766052 0.60413355 0.48139572 0.06480088 0.112035304 -0.25589928 0.2606731
0.28748864 0.17674437 -0.34239775 -0.12695304 -0.024621814 0.40124017 -0.013849325 0.083180584
0.48233938 0.13999754 0.11907786 -0.11477825 0.12566967 -0.31825134 -0.025215706 0.23352869
-0.53342515 0.11735888 -0.31582993 0.22690563 0.050705057 0.08350264 -0.17592208 0.588259
-0.038987774 -0.04135007 0.27538764 -0.047141626 0.11844435 0.06278399 0.4978824 0.1520637
0.1086646 -0.071866475 -0.24592255 0.30535415 -0.35093835 0.08478322 -0.029536767 0.44879052
-0.030997517 -0.14153615 -0.013563444 0.56200457 0.3993773 0.39521396 0.054554254 0.14504787
-0.017805137 0.37232393 0.47480062 0.047900356 -0.016947582 0.18508369 -0.10399944 -0.3684295

fc.4.weight f4 [10, 64]
00000000: c859 90bd f2b3 25bf 2af1 b9be 3cd3 09be
00000010: a911 debb ade4 3ebf 0f15 cbbd 74b0 e9be
00000020: 512b b2be 4a38 793e 6749 323e 7bdf 993d
00000030: fb2a 253c 84a3 4cbf 091c 893b eed7 823d
00000040: ea4d f1be 216c 8c3e 92a1 063f 8b1e 18be
00000050: 61d1 d7be 6123 163d a4c9 bebe 7d68 be3d
00000060: f8a5 923e 2059 64be f52f d23c 8a0f 263e
00000070: fbad 76bb a075 92be c147 0ebe f955 b23e
00000080: e1ee e93e 5a69 bd3e 3034 4c3e 680c 0cbd
00000090: 7f79 8dbd b273 e13c 2354 00bf 5140 71bf
000000a0: 8997 2b3e a89f 31be 2ba6 04bf 97de f73e
000000b0: 4b05 5b3e 942f ec3e 8a3c d9be 173f e93d
000000c0: c29e d4bd a0d6 9ebd 59fd 25bd f0f0 a0be
000000d0: 6785 31bf cca8 0f3e 07a3 b33e 5e87 8bbd
000000e0: bc2f 343e faa4 073e 067a e7be b53f 35bf
000000f0: 63a0 09bf 34e5 cabd 6a6d c63e c065 9d3e
00000100: c8c7 10be 9ab1 30be cd77 3abf b574 18bf
00000110: 502a 2f3d 7feb 643e 6319 de3e 79e0 4e3d
00000120: 5a67 3bbd ec76 1bbf 70c7 193d c836 3d3b
00000130: 08d1 03be 92bd 53be 6d83 533c a0ab 6a3e
00000140: f161 563e be89 b63d 2f06 e5bd 1257 8fbd
00000150: 2761 e13d 4362 d8be 2f8f 2c3f 59ed be3e
00000160: ddfc 08be 2556 ecbd 469b b23e 96b8 ebbe
00000170: d230 10bf 83ff 44be cec9 31bf 621f 3bbf
00000180: c70d 563f b47a d2bd d1a2 af3c e730 4e3d
00000190: 1a67 b13e 2cc0 9c3e abfc 6bbf 92b4 11bf
000001a0: 93a7 b1bd bb78 21bf b19e b03e f3d8 2dbf
000001b0: b174 5d3b e634 80bb 96bc a8be 0d99 08bf
000001c0: 2ddc d3be 4cef 743b 5d0b d43d 94d2 59be
000001d0: dc1f b6bd 4da6 20bf c2b7 7b3e dd47 14bf
000001e0: 9478 1d3e 7e73 bdbe 1820 8cbe 6ed3 413e
000001f0: a629 f83e 536f 4d3e 9dac 213e 8737 7fbe
00000200: 1bb1 73bd 62b1 2abf 81ac 40bf 24b7 fc3e
00000210: 4800 6cbd 9daf 41bd eb2c 943e 8830 483e
00000220: 2f97 8ebf c2ca dfbd 0357 fbbe ce78 af3e
00000230: 0bb9 953d a0ed 363e 9262 803f 43f9 b2be
00000240: 1023 c13d 0d50 36bf 785e 253f 9148 33bd
00000250: 0eac 8dbf 7c2f 343e d043 5fbf dd2b bbbe
00000260: 045c 163f 19dc 07bf f882 84be 9f0a 7f3e
00000270: a235 273e 79b9 59bf d09c b33e c9ef 0e3e
00000280: 1217 313f b2df 7dbe b6d6 523d 1799 9c3d
00000290: e923 ee3e f928 f2be 4ab8 20be 2602 213c
000002a0: 63f5 2a3e 3c5c 8f3e 5394 4bbc 4e79 b7bd
000002b0: 6f06 143e ccc6 943d cba2 ec3e 5c42 c9bc
000002c0: 9d6c 7ebf e02d 323c 1852 a9bc 8c45 76be
000002d0: 4959 e33e fc35 40be 1a88 25bf b3ed 403e
000002e0: ba0d 1abe 6015 993e 84be 1fbf f747 063e
000002f0: bc48 8d3d 73fd 833e ba48 d7bc 35ca 713e
00000300: a4dd 713c a3eb 733e 8c10 e53d 888f b8be
00000310: c3a4 02be f85b ac3e 3a25 14bf 73bf ddbe
00000320: d6a5 843c e5b0 e33c b59a ee3d 1dc7 cbbd
00000330: 2a16 08be df9a 9dbd 5ef5 3abf bf0e 253e
00000340: cc5a 683e 03fd 0dbe de52 e0be b17a 2e3d
00000350: e946 ed3d 64c3 cebd 9f9c 45bf 7b8a f23d
00000360: 1bdc 5cbe 4a64 9d3e 1c89 e5be 7c90 a23e
00000370: 1594 793e 57cd 6abf 7bf8 09bf dfa6 9bbe
00000380: 322c aebe 38d7 353e be4b dfbc adf1 a5bd
00000390: ec6b bb3e bd01 413e 2e80 313e edc0 7dbe
000003a0: fc60 ccbe 5d20 493c 3e80 c73c e460 9ebf
000003b0: e1a0 3f3e 0f35 22be 56f6 15bf cbf9 8d3e
000003c0: b3f6 7e3f f906 853d 7b91 533d 99d8 493f
000003d0: 87d0 943e 235a fe3d 2a79 c4be 9af5 063f
000003e0: 3f7b c1be f125 b0be 32a8 14be 1b20 24bf
000003f0: e93b 8dbe e581 90be ee8b 2abf 10de b73c
-0.070483744 -0.647277 -0.36316806 -0.13459486 -0.0067770076 -0.7456768 -0.09916126 -0.45642436
-0.34798673 0.24337879 0.17410813 0.07513329 0.010081048 -0.79937005 0.0041842503 0.063888416
-0.47129756 0.27426246 0.52590287 -0.14855401 -0.4215193 0.036654834 -0.37263215 0.09297273
0.2864225 -0.22299623 0.025657633 0.16216865 -0.0037640322 -0.28605366 -0.1389456 0.34831217
0.45690063 0.3699444 0.19941783 -0.03419152 -0.06907939 0.027520988 -0.5012838 -0.94238764
0.16757025 -0.1734606 -0.5181605 0.4841201 0.21388738 0.4613005 -0.42429 0.113889866
-0.10381843 -0.0775578 -0.040524814 -0.3143382 -0.6934418 0.14029235 0.35085317 -0.068129286
0.17596334 0.13246527 -0.45210284 -0.70800334 -0.53760356 -0.09906998 0.3875535 0.30741692
-0.1413871 -0.1725525 -0.7283905 -0.5955308 0.04276496 0.2235546 0.43378744 0.050507043
-0.04575286 -0.60728335 0.037543714 0.0028871763 -0.12872708 -0.20677784 0.012909752 0.22917032
0.20935799 0.08912991 -0.1118282 -0.06999029 0.110048585 -0.42262468 0.6740598 0.37290457
-0.1337771 -0.11539868 0.3488409 -0.46039265 -0.56324494 -0.19238095 -0.69448555 -0.7309476
0.8361477 -0.1027731 0.021439942 0.050339606 0.34648973 0.30615366 -0.92182416 -0.56916153
-0.0867454 -0.63074845 0.34496072 -0.67909163 0.0033791477 -0.003912556 -0.3295638 -0.53358537
-0.41378918 0.0037374077 0.1035373 -0.21271735 -0.088927954 -0.62753755 0.24581817 -0.57922155
0.15378028 -0.37002176 -0.27368236 0.1892831 0.48469275 0.20061998 0.15788503 -0.24923526
-0.059495073 -0.66676915 -0.7526322 0.49358475 -0.057617456 -0.04728662 0.2894052 0.19549763
-1.1139888 -0.10927345 -0.49089822 0.34271854 0.07310685 0.17864084 1.0030081 -0.34955797
0.09430516 -0.712159 0.6459727 -0.043770377 -1.1068132 0.17596239 -0.8721285 -0.36556903
0.58734155 -0.5307022 -0.2588117 0.24906395 0.16329053 -0.85048634 0.35080576 0.13958658
0.6917583 -0.24792364 0.051474296 0.07646387 0.46511772 -0.47296885 -0.156953 0.009827172
0.1669517 0.28000057 -0.0124255 -0.08958684 0.14455579 0.0726448 0.4621795 -0.024567775
-0.9938448 0.010875195 -0.020669028 -0.24049968 0.44404057 -0.18770593 -0.646608 0.18840675
-0.15044299 0.2989912 -0.6240008 0.1311339 0.068986386 0.25779304 -0.026279796 0.23612292
0.014762316 0.23820357 0.11184797 -0.36047006 -0.12758164 0.33663917 -0.57869303 -0.43310127
0.016192358 0.02779431 0.11650602 -0.09950087 -0.13289705 -0.07695555 -0.7303065 0.16118906
0.22690886 -0.13866048 -0.43813223 0.042597476 0.11585791 -0.100958616 -0.7719211 0.11842819
-0.21568339 0.30740577 -0.4483117 0.31750858 0.24372895 -0.91719574 -0.53894776 -0.3040075
-0.34018093 0.1775788 -0.027257796 -0.081027366 0.36605775 0.1884832 0.17334053 -0.24780627
-0.39917743 0.012275782 0.024353143 -1.2373319 0.18713714 -0.15840553 -0.58579004 0.2772964
0.99595183 0.064954706 0.051652413 0.78846127 0.29065344 0.12419536 -0.3837369 0.5271851
-0.37789342 -0.34403947 -0.14517286 -0.6411149 -0.2758477 -0.28224102 -0.66619766 0.022444755

fc.4.bias f4 [10]
00000000: 2416 e83b f906 00be 233c 5cbe 8efd ae3e
00000010: c81f 163f 3754 8bbd 4068 aabd cc21 f3bc
00000020: a194 2dbe 5010 8bbe
0.0070827175 -0.1250266 -0.21507315 0.34177822 0.58642244 -0.06803172 -0.08320665 -0.029679202
-0.16951229 -0.27160883
