cnn.pth (torch_old, 333109 bytes, 10 tensors)

conv.0.weight f4 [6, 3, 3, 3]
0.13451193 -0.07151377 -0.025424398 0.08238237 -0.20510302 0.1029262 -0.03168639 0.10462491
0.053377584 -0.046287723 0.012966741 -0.033847988 0.00752845 -0.14967974 -0.07779107 -0.05763529
-0.011104896 -0.018759722 0.19594353 0.07305408 -0.062223695 -0.12692095 -0.05266365 -0.09369006
-0.051529713 0.021785744 0.14667262 0.26244038 -0.15740225 0.12752928 0.20321457 0.28463668
0.07221045 0.01872187 -0.012111958 -0.07841016 0.36705953 0.04011095 0.13096723 0.122585125
0.35669932 -0.070196986 0.385949 0.22143826 -0.035078276 -0.07552841 -0.40248278 -0.2610618
-0.21874005 -0.22876275 -0.5397203 -0.22175243 -0.047620352 -0.34272105 0.29783174 0.2747753
0.10417657 0.0062867124 0.26695254 0.19490807 0.0230701 0.28868663 0.2660361 0.28876796
0.026733622 0.09086821 0.123987235 0.17492583 -0.017289309 -0.013552015 0.24715729 0.079542056
0.123257294 0.056183323 0.09679288 0.07266039 0.119010985 0.127875 -0.15570639 0.13875361
-0.10893505 -0.114019655 0.02829078 -0.008478629 0.18988065 -0.07754463 -0.15435976 0.2924557
0.10642479 0.22176798 -0.051609434 -0.27632424 -0.088803425 -0.01525297 -0.23186687 -0.21413925
0.08977339 0.045233577 -0.09510524 -0.095232435 0.12885892 -0.079253644 0.12001951 0.062139902
-0.16454533 -0.07405255 0.26725155 0.06998892 0.14241707 0.05141436 0.07250312 0.20491572
0.22933583 -0.0734796 0.10687221 0.20031299 0.20651467 0.32118487 0.06351828 0.061476685
0.08363467 0.21175173 0.38458908 0.045988932 0.24643709 0.04409516 0.10454699 0.24465483
0.39413342 0.4514117 0.13798554 0.30503994 0.40443572 0.33878955 0.33854973 0.13090965
0.116159715 0.0426572 -0.13554336 -0.16660114 -0.09645477 -0.02639783 -0.12372367 0.06140834
0.052253183 -0.051031217 0.06496918 0.05656393 0.11043959 0.11933919 -0.070825145 0.18028241
-0.03306987 -0.01122977 -0.18587048 -0.12956753 -0.11538396 -0.08597508 0.1300679 -0.06564703
-0.14792722 0.066833094
00000000: 7fbd 093e d075 92bd d446 d0bc 17b8 a83d
00000010: 8706 52be f9ca d23d 97c9 01bd 9645 d63d
00000020: 74a2 5a3d 3298 3dbd 7472 543c 30a4 0abd
00000030: 37b1 f63b a545 19be ed50 9fbd fb12 6cbd
00000040: 4ff1 35bc fdad 99bc 6ca5 483e 619d 953d
00000050: 46de 7ebd 91f7 01be d7b5 57bd 93e0 bfbd
00000060: d210 53bd 0478 b23c 5931 163e 965e 863e
00000070: 0e2e 21be 0997 023e 7b17 503e e6bb 913e
00000080: 13e3 933d 9b5e 993c 3c71 46bc 8295 a0bd
00000090: 3aef bb3e 614b 243d 461c 063e e90d fb3d
000000a0: 4ba1 b63e 70c3 8fbd 1b9b c53e b6c0 623e
000000b0: 3dae 0fbd a4ae 9abd 3912 cebe e4a9 85be
000000c0: 64fd 5fbe c840 6abe 1c2b 0abf 1213 63be
000000d0: 8f0d 43bd 2279 afbe 677d 983e 59af 8c3e
000000e0: 875a d53d c400 ce3b 01ae 883e fb95 473e
000000f0: 82fd bc3c bcce 933e e235 883e 65d9 933e
00000100: 7800 db3c 1d19 ba3d 05ed fd3d c21f 333e
00000110: 4fa2 8dbc 4509 5ebc cd16 7d3e f2e6 a23d
00000120: 526e fc3d 7c20 663d 583b c63d f8ce 943d
00000130: 08bc f33d aaf1 023e 7f71 1fbe 6d15 0e3e
00000140: 5719 dfbd 2383 e9bd 11c2 e73c f3e9 0abc
00000150: 1370 423e b8cf 9ebd 7c10 1ebe c1bc 953e
00000160: 3ef5 d93d 2517 633e 6a64 53bd 5f7a 8dbe
00000170: 92de b5bd 98e7 79bc 826e 6dbe 5247 5bbe
00000180: 1cdb b73d d846 393d 89c6 c2bd 3909 c3bd
00000190: 98f3 033e bc4f a2bd cacc f53d 6986 7e3d
000001a0: 927e 28be dda8 97bd 32d5 883e 5a56 8f3d
000001b0: c8d5 113e dd97 523d 847c 943d 6dd5 513e
000001c0: 03d7 6a3e 797c 96bd d1df da3d d91e 4d3e
000001d0: 9578 533e 5872 a43e df15 823d face 7b3d
000001e0: a748 ab3d 72d5 583e dce8 c43e e45e 3c3d
000001f0: 015a 7c3e 209d 343d bb1c d63d cc86 7a3e
00000200: dbcb c93e 6f1f e73e 154c 0d3e 322e 9c3e
00000210: 3312 cf3e d375 ad3e 6456 ad3e 2e0d 063e
00000220: 25e5 ed3d 51b9 2e3d e1cb 0abe 7d99 2abe
00000230: 148a c5bd 4340 d8bc d662 fdbd 5087 7b3d
00000240: 6f07 563d 1c06 51bd 900e 853d 94af 673d
00000250: 272e e23d 1b68 f43d c60c 91bd f49b 383e
00000260: 4674 07bd 12fd 37bc d554 3ebe 5aad 04be
00000270: 6d4e ecbd b413 b0bd 8530 053e f371 86bd
00000280: 3c7a 17be cadf 883d

conv.0.bias f4 [6]
0.09903354 0.28486317 -0.32533914 0.10510449 -0.34306014 -0.06413885
00000000: 19d2 ca3d 96d9 913e da92 a6be 0641 d73d
00000010: 94a5 afbe 3b5b 83bd

conv.3.weight f4 [16, 6, 5, 5]
-0.059373975 -0.027516961 -0.011706033 0.048995722 0.021948174 0.023846198 0.09354917 0.09662816
0.06929984 0.0056344434 -0.050448265 0.082356565 0.0023968047 0.0063108336 -0.068850525 -0.009445582
-0.03478084 0.09397239 -0.06503226 -0.06782778 0.004519888 -0.029103633 0.04155844 -0.028837498
-0.043052103 0.061468076 0.13164353 -0.0023234314 0.07352893 0.08907029 0.142227 0.027512742
0.08402176 -0.03417201 0.10847354 0.032414705 0.13259375 0.060541697 0.009466276 0.03403206
0.08032262 0.1138622 0.06462182 0.04384153 -0.036094256 0.12961231 0.13721184 0.11751475
0.09621011 -0.014420622 0.015999813 0.060096003 -0.11727936 0.05947514 -0.046399895 0.0323956
0.04387665 -0.14451337 -0.027969973 0.1440446 0.15321222 0.05730631 -0.15390147 -0.11399446
0.17498222 0.069522895 -0.04830519 -0.082360595 -0.10013208 0.14903948 0.10432286 -0.08378941
-0.12404148 -0.022990573 0.11146108 0.014099404 -0.015837014 0.014605309 -0.06950928 -0.047785312
-0.05149938 0.085688435 0.076543204 -0.043020103 -0.004378286 0.041106988 0.03443908 -0.025366759
0.032116424 0.036491305 -0.009556675 0.003295041 0.08606018 0.05730256 -0.06605503 0.07331296
0.023642553 -0.051173612 0.032855578 -0.08048045 0.145539 -0.08898302 -0.10955549 -0.045114532
0.029052785 0.20319377 -0.050071463 -0.22264455 -0.14115405 0.112000756 0.09767996 -0.048994336
-0.27340958 -0.09781833 0.1920704 0.14882405 -0.06578061 -0.21618469 -0.1478511 0.20353015
0.05412003 -0.029100548 -0.10013114 -0.08381649 0.14941566 0.04580973 0.004017847 -0.046317294
-0.03464597 0.0010580932 -0.046842903 -0.04594013 -0.012385068 -0.023435133 0.019800361 -0.021826968
-0.011289982 -0.031529896 -0.07480937 0.07073266 0.014951293 0.07243384 -0.013619564 -0.020965474
-0.07727865 -0.03163709 0.052937478 -0.08048585 -0.029074423 0.048911907 0.06320048 0.048940126
-1.6422784e-05 0.00806397 -0.0026138362 -0.015377003 0.05084197 -0.013290606 -0.032451257 0.031661402
-0.050400075 -0.006265916 0.05457532 0.042805504 0.07943469 -0.05116465 0.0074145067 -0.016024498
-0.038562767 -0.03985793 0.0215979 0.011178932 -0.038063776 -0.05542796 -0.06483004 0.09553714
-0.0044141742 -0.02018501 -0.028324138 -0.033816908 -0.06445934 -0.038137645 0.05290165 0.017782323
-0.027546149 -0.022422241 0.062483747 0.06389356 0.07920744 0.02119992 0.046838634 0.0024156605
-0.044395726 -0.079299755 0.049055927 0.002645896 0.045738854 0.010694453 -0.07031126 -0.03503609
0.005496465 -0.07112368 -0.13187052 0.02458042 0.019251462 0.00041796392 0.027116157 -0.012192484
-0.046932567 0.08655135 0.09685874 0.046481844 -0.009165386 -0.07407158 0.06252225 0.041158903
-0.0010280589 0.08470947 0.058400143 0.035359066 0.044007253 0.026258403 0.05132637 0.10189127
0.03890445 -0.0031012585 0.11978178 0.030577471 0.08764722 0.038519114 0.10487403 0.08859429
-0.003452727 0.08668408 0.018877245 -0.050647963 0.009318076 -0.043412287 -0.013070352 -0.03680727
0.059781704 -0.003744793 0.003145668 0.058591016 0.052017406 -0.05494697 0.034614608 0.04028345
-0.056105975 0.082070686 -0.12050269 -0.16295244 -0.20582144 0.005272311 -0.01456703 0.0815303
00000000: 2032 73bd 406b e1bc a9ca 3fbc bdaf 483d
00000010: a8cc b33c 1a59 c33c b596 bf3d fce4 c53d
00000020: 13ed 8d3d 23a1 b83b d7a2 4ebd 8faa a83d
00000030: b613 1d3b 1ccb ce3b 8101 8dbd a4c1 1abc
00000040: 5b76 0ebd 9974 c03d a22f 85bd 4be9 8abd
00000050: 921b 943b be6a eebc 2f39 2a3d 9e3c ecbc
00000060: 6757 30bd f3c5 7b3d 90cd 063e b644 18bb
00000070: 5696 963d 7c6a b63d f4a3 113e 6762 e13c
00000080: 9a13 ac3d f3f7 0bbd 6027 de3d 48c5 043d
00000090: a8c6 073e 92fa 773d 7018 1b3c 3465 0b3d
000000a0: 3080 a43d 9630 e93d 7258 843d 2d93 333d
000000b0: 92d7 13bd 17b9 043e 4381 0c3e 93ab f03d
000000c0: ce09 c53d 7944 6cbc 0a12 833c 3a27 763d
000000d0: 2930 f0bd 349c 733d d10d 3ebd 40b1 043d
000000e0: 01b8 333d 50fb 13be 4921 e5bc 6d80 133e
000000f0: aae3 1c3e 05ba 6a3d 5998 1dbe ed75 e9bd
00000100: 8a2e 333e 0562 8e3d aadb 45bd acac a8bd
00000110: 0c12 cdbd ce9d 183e 39a7 d53d c899 abbd
00000120: 7609 febd ba56 bcbc b545 e43d 3001 673c
00000130: a0bc 81bc 1b4b 6f3c e25a 8ebd 88ba 43bd
00000140: 04f1 52bd 6b7d af3d afc2 9c3d d935 30bd
00000150: ba77 8fbb cd5f 283d fe0f 0d3d f3cd cfbc
00000160: 838c 033d e877 153d 9a93 1cbc 9df1 573b
00000170: 5240 b03d 17b6 6a3d dc47 87bd 1b25 963d
00000180: 07ae c13c 6c9b 51bd 9293 063d efd2 a4bd
00000190: 2d08 153e bb3c b6bd a15e e0bd 04ca 38bd
000001a0: 1b00 ee3c 0712 503e bc17 4dbd effc 63be
000001b0: b08a 10be a760 e53d 6e0c c83d 49ae 48bd
000001c0: 57fc 8bbe fa54 c8bd 1aae 443e 5565 183e
000001d0: fcb7 86bd 855f 5dbe 4766 17be 356a 503e
000001e0: f7ac 5d3d 4664 eebc 8e11 cdbd fba7 abbd
000001f0: 6b00 193e fca2 3b3d 25a8 833b 34b7 3dbd
00000200: efe8 0dbd b7af 8a3a 58de 3fbd b82b 3cbd
00000210: beea 4abc 09fb bfbc 5e34 a23c 78ce b2bc
00000220: 9ef9 38bc 7e25 01bd a835 99bd 49dc 903d
00000230: 45f6 743c 3158 943d 9724 5fbc c9bf abbc
00000240: 4544 9ebd e595 01bd f8d4 583d c4d5 a4bd
00000250: 7c2d eebc da57 483d 416f 813d 7175 483d
00000260: a9c3 89b7 be1e 043c e54c 2bbb d3ef 7bbc
00000270: ab3f 503d d8c0 59bc 9ceb 04bd 63af 013d
00000280: 4f70 4ebd 5052 cdbb 5f8a 5f3d d354 2f3d
00000290: a8ae a23d 0692 51bd 64f5 f23b cf45 83bc
000002a0: fef3 1dbd 1242 23bd 14ee b03c d727 373c
000002b0: c3e8 1bbd 6e08 63bd 9dc5 84bd faa8 c33d
000002c0: c7a4 90bb 095b a5bc 0608 e8bc 9983 0abd
000002d0: 4203 84bd 3836 1cbd 67af 583d 3cac 913c
000002e0: 76a8 e1bc d9ae b7bc f5ee 7f3d a0da 823d
000002f0: 8337 a23d 74ab ad3c ded9 3f3d 0f50 1e3b
00000300: 4bd8 35bd e967 a2bd deee 483d c566 2d3b
00000310: aa58 3b3d c937 2f3c 5aff 8fbd 0182 0fbd
00000320: b11b b43b 4ba9 91bd 1109 07be e15c c93c
00000330: 3eb5 9d3c 2b22 db39 b422 de3c fcc2 47bc
00000340: 5d3c 40bd d641 b13d e05d c63d bf63 3e3d
00000350: 6a2a 16bc d7b2 97bd aa0b 803d 3d96 283d
00000360: efbf 86ba 297c ad3d fd34 6f3d abd4 103d
00000370: f340 343d dd1b d73c 9a3b 523d 5fac d03d
00000380: 465a 1f3d 7c3e 4bbb 2650 f53d 9b7d fa3c
00000390: 6380 b33d 38c6 1d3d 32c8 d63d ec70 b53d
000003a0: 2647 62bb 6c87 b13d 74a4 9a3c 3d74 4fbd
000003b0: d8aa 183c 15d1 31bd 0825 56bc 38c3 16bd
000003c0: a9dd 743d 336b 75bb 8d27 4e3b 22fd 6f3d
000003d0: 3410 553d 1310 61bd 0cc8 0d3d 4200 253d
000003e0: 61cf 65bd ad14 a83d 1dca f6bd 01dd 26be
000003f0: dbc2 52be 5ac3 ac3b 8daa 6ebc 5cf9 a63d

conv.3.bias f4 [16]
0.08395782 -0.03959767 0.060861986 0.031606447 0.02409349 0.02915511 -0.015146449 -0.08776179
-0.048448186 0.07894508 -0.13382725 0.07429995 0.02451261 0.025843764 0.05107677 -0.07610242
00000000: 14f2 ab3d 2b31 22bd 6b4a 793d c375 013d
00000010: b65f c53c b2d6 ee3c d028 78bc 74bc b3bd
00000020: 9b71 46bd f5ad a13d 030a 09be 922a 983d
00000030: abce c83c 4db6 d33c e035 513d 96db 9bbd

fc.0.weight f4 [120, 576]
0.024717366 -0.045686837 0.01895494 -0.0018188542 0.031859882 -0.012324089 -0.043825775 0.008479036
0.044202607 0.009696286 -0.028283777 -0.0062275757 0.0038299884 0.021173732 0.033637404 0.016054444
0.008410278 -0.0073295836 0.015018718 0.01653799 0.022385648 0.0061535737 -0.004168658 0.026216539
0.0013059974 -0.03699155 0.0036848055 0.036922462 -0.011032184 0.017836975 -0.025899183 0.0020549004
0.02798935 -0.017570361 -0.006167407 0.0026766777 -0.009652751 -0.012777785 0.027666612 -0.011362271
-0.016921017 0.024821473 0.006326657 -0.020944588 0.021832036 -0.027632862 0.03397009 0.026503762
0.0038355163 0.012768981 -0.017260358 -0.036766484 -0.03426669 0.011029997 0.012433762 0.0024250345
-0.0037546973 -0.007055022 -0.02204491 -0.023575952 0.01459737 -0.038588755 0.0391608 0.036115404
-0.004553687 -0.0032698372 -0.029393531 -0.04271844 0.0026804246 -0.027105624 0.0060847974 -0.011482215
-0.021113988 -0.027113397 0.044101868 0.03948284 0.049194112 0.028982926 0.021330053 0.014003236
0.024592478 0.00748983 0.010217034 0.03600508 0.019895937 -0.031758975 0.02274862 0.038161404
-0.01603924 -0.035668656 -0.01049967 -0.024560358 0.051283527 0.0014665343 -0.019622102 0.021695796
0.012910813 0.0121926 0.044408824 -0.03633899 0.014061604 -0.03197944 0.012097552 -0.020972708
0.032745935 -0.016878534 -0.010724983 -0.047851607 0.030827194 -0.030402558 0.033686 0.0381134
0.03759724 0.027856825 -0.011185368 0.016518628 0.021982213 -0.03090903 0.025704348 -0.032652214
0.014801475 0.041680418 -0.00805144 0.011389487 0.04168757 0.028848276 0.04235285 -0.023191227
0.008795212 -0.032573506 0.016482469 -0.039589677 0.009338135 0.024442142 -0.035625465 -0.006842855
-0.012191738 0.032215644 -0.003215169 0.023483727 -0.035666782 -0.0027503031 0.025467511 -0.004616766
-0.023939114 -0.021829009 0.02746921 0.014023726 -0.0007519084 0.021544445 -0.028493242 -0.04142639
-0.01958933 0.023841603 -0.04317782 -0.028949082 0.013396095 0.011463696 0.0114520835 0.0076263514
-0.035487436 -0.01350823 0.033256467 0.009241894 0.021956652 0.030623859 0.025656814 -0.022768782
-0.0059373034 0.0009714895 -0.00024007469 -0.002776504 -0.0054656453 0.0049139373 0.038555134 -0.013598936
0.03223877 -0.034794748 0.0048338687 -0.04704044 0.039191384 -0.03646492 -0.024068665 0.026896406
0.021541687 0.032409973 0.010066447 -0.03823122 -0.0298736 0.02815276 -0.040462825 0.0375314
-0.007907474 0.007163158 -0.0022153961 -0.010411133 -0.009625876 0.012412477 -0.007871945 0.0067787953
0.034739476 0.0036561526 -0.033057913 -0.032088313 0.026050458 0.014201947 0.007581769 -0.021434387
-0.034854617 0.03501856 -0.03915713 -0.020835858 0.015990332 0.035508297 -0.01489856 -0.04138315
0.013482078 0.0071890075 0.0029808732 -0.029550163 0.031314313 0.010966702 0.012816498 0.026949918
0.034677092 -0.012030847 0.00402835 -0.028619412 -0.021628115 -0.019450659 0.0005078128 -0.026412196
0.027984947 0.011420998 0.00022761065 0.028663779 0.035058122 -0.0066089886 0.032855216 0.0211346
0.054661 -0.020383317 0.040371582 0.009494294 0.012793481 -0.0063205897 -0.015109315 -0.003749387
-0.022773437 0.0028917573 0.012505071 -0.04901772 0.017766096 -0.039377585 0.019505952 -0.04288297
00000000: 137c ca3c 1f22 3bbd 6447 9b3c 9f66 eeba
00000010: 827f 023d faea 49bc a882 33bd a8eb 0a3c
00000020: cb0d 353d 2cdd 1e3c 61b3 e7bc b110 ccbb
00000030: 8b00 7b3b 8974 ad3c 60c7 093d 9c84 833c
00000040: 43cb 093c 012d f0bb 1211 763c ae7a 873c
00000050: 1b62 b73c eba3 c93b 3d99 88bb 11c4 d63c
00000060: 002e ab3a 7484 17bd c77c 713b 023c 173d
00000070: 55c0 34bc d91e 923c 862a d4bc 82ab 063b
00000080: ec49 e53c b8ef 8fbc f617 cabb 336b 2f3b
00000090: 9226 1ebc ea59 51bc 17a5 e23c d228 3abc
000000a0: f29d 8abc 6756 cb3c d84f cf3b fc93 abbc
000000b0: 19d9 b23c 505e e2bc 3924 0b3d 6b1e d93c
000000c0: 495d 7b3b fd34 513c 9865 8dbc 7498 16bd
000000d0: 3b5b 0cbd 29b7 343c fab6 4b3c 54ed 1e3b
000000e0: 5e11 76bb d02d e7bb 8797 b4bc 5b22 c1bc
000000f0: cf29 6f3c 3e0f 1ebd 1367 203d bfed 133d
00000100: 1837 95bb c44a 56bb b4ca f0bc 88f9 2ebd
00000110: 10aa 2f3b 9d0c debc fb62 c73b e61f 3cbc
00000120: 3ef7 acbc ea1c debc 29a4 343d c2b8 213d
00000130: c47f 493d 9a6d ed3c 5dbc ae3c d46d 653c
00000140: 2a76 c93c 3f6d f53b 5965 273c 107a 133d
00000150: cefc a23c b315 02bd 505b ba3c 224f 1c3d
00000160: b964 83bc 4c19 12bd cf06 2cbc ce32 c9bc
00000170: ad0e 523d ba38 c03a 88be a0bc 62bb b13c
00000180: e087 533c 79c3 473c 07e6 353d 31d8 14bd
00000190: a462 663c e0fc 02bd d034 463c f5ce abbc
000001a0: 9a20 063d da44 8abc d7b7 2fbc 0c00 44bd
000001b0: 5089 fc3c c90e f9bc 55fa 093d cc1c 1c3d
000001c0: 90ff 193d ff33 e43c d542 37bc 1352 873c
000001d0: 0b14 b43c ef34 fdbc ed91 d23c 54be 05bd
000001e0: e381 723c 16b9 2a3d 30ea 03bc f99a 3a3c
000001f0: 96c0 2a3d 3853 ec3c 2f7a 2d3d 87fb bdbc
00000200: cb19 103c cc6b 05bd 3e06 873c c928 22bd
00000210: fafe 183c e33a c83c 02ec 11bd 073a e0bb
00000220: dbbf 47bc 8df4 033d 96b5 52bb f260 c03c
00000230: 5517 12bd 6e3e 34bb 3ea1 d03c 3d48 97bb
00000240: f61b c4bc c0d2 b2bc 1c07 e13c c5c3 653c
00000250: b81b 45ba fa7d b03c a96a e9bc b8ae 29bd
00000260: cd79 a0bc 774f c33c 3adb 30bd a026 edbc
00000270: 4b7b 5b3c 3ad2 3b3c 85a1 3b3c 79e6 f93b
00000280: 465b 11bd a051 5dbc ef37 083d 506b 173c
00000290: 70de b33c e3de fa3c 3d2e d23c 9985 babc
000002a0: b68d c2bb 8fab 7e3a 8fbc 7bb9 02f6 35bb
000002b0: 2819 b3bb 1805 a13b fdeb 1d3d 12ce 5ebc
000002c0: cd0c 043d f084 0ebd 6e65 9e3b 7aad 40bd
000002d0: 2587 203d 3d5c 15bd a62b c5bc da55 dc3c
000002e0: 3178 b03c 52c0 043d bded 243c 5798 1cbd
000002f0: 7bb9 f4bc 9ea0 e63c 59bc 25bd 86ba 193d
00000300: 5a8e 01bc edb8 ea3b 2e30 11bb 7593 2abc
00000310: dab5 1dbc b45d 4b3c 55f9 00bc a820 de3b
00000320: fb4a 0e3d 109c 6f3b bc67 07bd 096f 03bd
00000330: c567 d53c 48af 683c 7d70 f83b 2b97 afbc
00000340: b7c3 0ebd 9f6f 0f3d 3a63 20bd f6af aabc
00000350: 28fe 823c 2671 113d 1719 74bc 6181 29bd
00000360: efe3 5c3c c491 eb3b c15a 433b 2f13 f2bc
00000370: 7043 003d afad 333c 4afc 513c 13c6 dc3c
00000380: 9109 0e3d 081d 45bc 4000 843b 4273 eabc
00000390: 722d b1bc fd56 9fbc bd1e 053a 645e d8bc
000003a0: b040 e53c 231f 3b3c c5aa 6e39 4dd0 ea3c
000003b0: 1b99 0f3d 3790 d8bb 3193 063d 7822 ad3c
000003c0: 36e4 5f3d eafa a6bc ac5c 253d f58d 1b3c
000003d0: c09b 513c f31c cfbb 0f8d 77bc 47b8 75bb
000003e0: 5c8f babc a383 3d3b 12e2 4c3c cec6 48bd
000003f0: 348a 913c 644a 21bd f2ca 9f3c 0ea6 2fbd

fc.0.bias f4 [120]
-0.040801644 0.0464925 -0.04176153 0.0011676906 0.0058948053 0.056504004 0.0020217102 0.00722357
-0.019794192 -0.01225506 -0.012414426 0.0268231 -0.014888109 0.006359209 -0.012872264 -0.015100852
0.006820536 0.022722013 -0.010122407 0.004188452 -0.015136835 -0.037862815 -0.013769493 -0.03869933
-0.02706648 -0.0030976392 -0.0131004965 0.0020823455 0.01992781 0.016883675 -0.005046591 -0.019630894
0.00030405857 -0.004311601 -0.035577226 0.040308576 0.05475492 0.00967911 -0.015776208 0.013363958
-0.008345477 0.029149817 0.0020235393 0.02390593 -0.0067858524 -0.040241797 0.024744265 -0.0055674273
-0.015812242 -0.00048777575 -0.00050860486 -0.022669043 -0.021997955 0.028251056 0.0074634654 0.018929748
0.018752798 -0.038791534 -1.38722135e-05 0.04311141 -0.0058798348 0.030939993 0.04271217 0.014691501
-0.05125733 -0.012894116 0.007020912 -0.039018925 0.04661693 -0.040914077 -0.031197995 0.027750071
0.0050677597 0.053712975 -0.0157173 0.029247658 0.011590002 -0.047713567 0.025897281 -0.025610758
-0.043443386 0.010085656 -0.009265644 0.005096481 0.053626943 -0.021861117 -0.032387774 -0.019280562
-0.01944311 0.02666995 -0.04250516 -0.019101948 -0.0057582334 -0.007836736 -0.026028063 -0.025947478
0.0037646529 -0.024349196 0.009816514 0.04197789 -0.014099913 0.014034363 0.05796986 0.054474495
0.022776566 -0.010110518 0.028054176 -0.060786225 0.022227528 -0.0132671865 0.024671394 0.03995765
0.04127196 0.044941593 -0.030230058 0.014251038 -0.0133179035 0.0062081316 -0.0030609688 0.015623317
00000000: a01f 27bd eb6e 3e3d 230e 2bbd 320d 993a
00000010: 3629 c13b be70 673d ab7e 043b b2b3 ec3b
00000020: 6e27 a2bc 72c9 48bc e065 4bbc 1ebc db3c
00000030: 41ed 73bc e960 d03b 30e6 52bc 9069 77bc
00000040: ce7e df3b 8423 ba3c 74d8 25bc 483f 893b
00000050: 7d00 78bc 0a16 1bbd 7199 61bc 3083 1ebd
00000060: 86ba ddbc c301 4bbb 77a3 56bc f677 083b
00000070: a63f a33c a24f 8a3c e05d a5bb f8d0 a0bc
00000080: 0d6a 9f39 5548 8dbb 6db9 11bd 9b1a 253d
00000090: b246 603d 2195 1e3c 1b3d 81bc 81f4 5a3c
000000a0: 78bb 08bc 99cb ee3c 5b9d 043b 5ed6 c33c
000000b0: db5b debb 95d4 24bd 7cb4 ca3c f76e b6bb
000000c0: ad88 81bc 27bc ffb9 e553 05ba 6eb4 b9bc
000000d0: 0e35 b4bc c26e e73c 1690 f43b 8f12 9b3c
000000e0: 789f 993c dfe3 1ebd b4bc 68b7 9795 303d
000000f0: a1ab c0bb de75 fd3c f5f2 2e3d 9fb4 703c
00000100: 35f3 51bd d841 53bc ae0f e63b 4fd2 1fbd
00000110: 65f1 3e3d 8595 27bd f092 ffbc 1e54 e33c
00000120: 730f a63b 2302 5c3d 91c1 80bc c998 ef3c
00000130: fee3 3d3c 4d6f 43bd 8926 d43c a7cd d1bc
00000140: b1f1 31bd 4f3e 253c edce 17bc 6200 a73b
00000150: eda7 5b3d 1616 b3bc 0ba9 04bd 45f2 9dbc
00000160: 2847 9fbc f07a da3c e419 2ebd b07b 9cbc
00000170: 90af bcbb a765 00bc ce38 d5bc ce8f d4bc
00000180: 65b8 763b f777 c7bc 72d5 203c 02f1 2b3d
00000190: 5203 67bc 63f0 653c ce71 6d3d a620 5f3d
000001a0: ec95 ba3c 96a6 25bc dfd1 e53c fafa 78bd
000001b0: 8116 b63c 9d5e 59bc aa1b ca3c a2aa 233d
000001c0: c90c 293d ad14 383d 07a5 f7bc 307d 693c
000001d0: 5633 5abc 956d cb3b 899a 48bb f1f8 7f3c

fc.1.weight f4 [84, 120]
-0.018813748 -0.07777057 0.029739207 -0.092665575 0.050601278 -0.07260003 -0.056084264 0.03213846
-0.027617542 0.027988108 -0.0430372 0.04495733 -0.06417964 0.07191322 0.008748674 0.08327129
-0.08253542 0.064678505 0.0425612 0.08715556 0.0072889826 -0.066125534 0.007720452 0.088251844
0.10991048 0.013994533 0.0027459722 -0.060066596 0.057106372 0.0445037 0.10114272 -0.0499951
-0.06969939 0.027085721 0.060267437 -0.06932983 -0.07153027 0.001637916 0.085584566 -0.084901035
-0.03590458 -0.0929227 0.07621848 -0.029771484 0.045050483 -0.04229117 -0.05701343 -0.041150924
0.004925944 0.010852955 0.02287397 0.03376577 -0.09039048 0.1029704 0.024406826 -0.075261556
0.025159061 0.014109729 -0.093523525 -0.03180454 -0.09458159 -0.06017303 0.04482666 -0.05692313
-0.050508853 0.031048747 0.055942804 0.059709966 -0.042771894 0.06997612 0.04211315 -0.074571334
-0.024904286 0.09081773 0.040581863 0.039768234 0.0363607 0.0999849 -0.035057016 0.023286525
-0.026439039 -0.0075497786 -0.06646305 -0.07298497 0.05135648 -0.05929836 -0.03375234 -0.06499955
-0.00060763257 0.051035844 -0.035100095 -0.037934255 -0.09351882 0.0096766455 -0.04412889 0.017156499
0.011424806 -0.06629046 0.10319298 -0.004277446 -0.090769425 -0.020020755 0.040324647 0.05699085
0.08487743 0.018499732 -0.071181476 0.03942214 0.000110584304 -0.03840436 0.014320941 -0.05634238
0.029914103 -0.031845935 -0.0043090894 -0.017747452 -0.06387481 0.047112364 0.00510355 0.017167218
-0.041533954 0.10684758 -0.061332747 0.10143689 0.054713093 -0.072152175 -0.019016614 0.0097416155
-0.08104071 -0.0836505 -0.078464374 0.02307174 0.034116488 0.00080156396 0.08759794 -0.04726157
0.025597652 -0.068557814 0.078369446 -0.016586317 -0.088069595 -0.0030829962 -0.0055168606 -0.111975335
0.0028377338 0.037211813 0.02757454 -0.035019655 0.039444976 -0.00893854 0.039413944 0.0020531171
-0.07703996 -0.059570894 0.059387177 -0.06596918 -0.056171227 -0.0061923126 0.05319344 0.09486984
-0.08657547 0.0852801 0.056488253 -0.058744702 -0.034498468 -0.023873243 -0.015280246 0.086266205
-0.044149652 -0.0912673 -0.026327437 -0.015067463 -0.046148445 0.033201337 -0.07198873 -0.08518928
0.016908983 0.048458114 -0.07359062 0.052160367 -0.042889394 0.012966446 -0.10350517 0.0047783265
0.04924821 -0.01850952 0.03088345 0.05388103 0.11795578 -0.0131193595 0.048074737 0.048573848
-0.021767957 0.008859066 0.04324566 -0.08025661 -0.0953937 0.018081147 0.08167324 -0.031225277
0.09084544 0.03821172 -0.04022368 -0.06234957 -0.0678864 -0.08988988 -0.032532055 -0.06289466
-0.0058000125 0.046027273 0.10137585 0.073332004 -0.027784836 0.08359186 -0.041229807 0.07275354
-0.093091264 -0.004441428 0.055920027 0.07570972 0.049455687 0.033712365 0.07599671 -0.09574126
0.049510844 -0.10259119 -0.037401743 0.0023106362 0.0446875 9.796389e-05 -0.065617286 -0.009386684
-0.049489442 -0.06910655 -0.021842021 0.061888926 0.09170867 -0.089075245 -0.050013058 -0.010710107
-0.06853409 0.07708699 -0.08585525 -0.044493385 0.064698525 0.08129365 -0.011488464 -0.051345047
-0.02555169 -0.050875943 0.07359752 -0.082022995 -0.07085196 -0.08096345 -0.031315885 -0.06314208
00000000: 4a1f 9abc 2d46 9fbd a39f f33c 73c7 bdbd
00000010: 4943 4f3d 53af 94bd 9db8 65bd 9ea3 033d
00000020: 2f3e e2bc 5147 e53c c647 30bd 2d25 383d
00000030: 9d70 83bd 3d47 933d 9956 0f3c 238a aa3d
00000040: 5508 a9bd 2a76 843d a754 2e3d 9d7e b23d
00000050: 6bd8 ee3b d36c 87bd d8fb fc3b 62bd b43d
00000060: bf18 e13d 5349 653c c5f5 333b 6408 76bd
00000070: 5fe8 693d 8349 363d ea23 cf3d a9c7 4cbd
00000080: 8ebe 8ebd e0e2 dd3c fdda 763d ccfc 8dbd
00000090: 767e 92bd 57af d63a f646 af3d 98e0 adbd
000000a0: ae10 13bd 424e bebd 6f18 9c3d 54e3 f3bc
000000b0: db86 383d 8239 2dbd ea86 69bd df8d 28bd
000000c0: d069 a13b 98d0 313c 3162 bb3c fa4d 0a3d
000000d0: a51e b9bd 25e2 d23d d3f0 c73c bb22 9abd
000000e0: 601a ce3c 7e2c 673c 4389 bfbd 7a45 02bd
000000f0: feb3 c1bd ff77 76bd 299c 373d 3a28 69bd
00000100: 5fe2 4ebd f159 fe3c 4824 653d 7092 743d
00000110: 9531 2fbd a44f 8f3d d77e 2c3d dbb8 98bd
00000120: 1304 ccbc a5fe b93d 2b39 263d 04e4 223d
00000130: f5ee 143d e2c4 cc3d f297 0fbd 62c3 be3c
00000140: af96 d8bc 2264 f7bb c81d 88bd 2579 95bd
00000150: 2c5b 523d d6e2 72bd e53f 0abd 7c1e 85bd
00000160: 8849 1fba f60a 513d 1ec5 0fbd f360 1bbd
00000170: cc86 bfbd cb8a 1e3c 7fc0 34bd c98b 8c3c
00000180: 1c2f 3b3c 4bc3 87bd d756 d33d d129 8cbb
00000190: 52e5 b9bd 9102 a4bc 752b 253d 3d6f 693d
000001a0: 38d4 ad3d c08c 973c 98c7 91bd 1c79 213d
000001b0: 7fe9 e738 e44d 1dbd 61a2 6a3c 44c7 66bd
000001c0: 6c0e f53c e270 02bd 4333 8dbb 1b63 91bc
000001d0: ccd0 82bd e5f8 403d ae3b a73b 44a2 8c3c
000001e0: 821f 2abd e7d2 da3d 0c38 7bbd 25be cf3d
000001f0: d61a 603d 85c4 93bd bbc8 9bbc 4c9b 1f3c
00000200: acf8 a5bd f450 abbd eeb1 a0bd f200 bd3c
00000210: bbbd 0b3d 0c20 523a 8c66 b33d 5995 41bd
00000220: 2bb2 d13c 0a68 8cbd 2980 a03d 07e0 87bc
00000230: d55d b4bd 180c 4abb c8c6 b4bb 5353 e5bd
00000240: 46f9 393b 6a6b 183d 00e4 e13c c570 0fbd
00000250: 0e91 213d f472 12bc 8470 213d 978d 063b
00000260: 20c7 9dbd 9c00 74bd f83f 733d d91a 87bd
00000270: cd13 66bd e2e8 cabb 5de1 593d 1e4b c23d
00000280: 7b4e b1bd 55a7 ae3d 3a60 673d 499e 70bd
00000290: 444e 0dbd d291 c3bc ff59 7abc 56ac b03d
000002a0: 44d6 34bd 5aea babd a3ac d7bc 85dd 76bc
000002b0: 2706 3dbd 20fe 073d d46e 93bd b877 aebd
000002c0: b584 8a3c 047c 463d aeb6 96bd 1ca6 553d
000002d0: caac 2fbd 3771 543c 85fa d3bd 8293 9c3b
000002e0: 7eb8 493d 47a1 97bc 4aff fc3c 5bb2 5c3d
000002f0: cd92 f13d 95f2 56bc 04ea 443d 5ff5 463d
00000300: b752 b2bc 9e25 113c 5c22 313d 945d a4bd
00000310: c65d c3bd ea1e 943c 4d44 a73d 27cc ffbc
00000320: 2d0d ba3d e483 1c3d 96c1 24bd 4362 7fbd
00000330: 0608 8bbd 2f18 b8bd 5540 05bd eace 80bd
00000340: 080e bebb 1887 3c3d 249e cf3d 172f 963d
00000350: 069d e3bc 3632 ab3d 96e0 28bd cfff 943d
00000360: a2a6 bebd 6689 91bb 660c 653d b30d 9b3d
00000370: 0c92 4a3d fa15 0a3d 2aa4 9b3d fe13 c4bd
00000380: e2cb 4a3d 541b d2bd 9232 19bd 0b6e 173b
00000390: 3d0a 373d f771 cd38 5b62 86bd 9bca 19bc
000003a0: 71b5 4abd bc87 8dbd 0aee b2bc 3e7f 7d3d
000003b0: c1d1 bb3d 156d b6bd 7eda 4cbd 7279 2fbc
000003c0: 9a5b 8cbd c9df 9d3d e1d4 afbd b23e 36bd
000003d0: a980 843d 497d a63d 1c3a 3cbc 2f4f 52bd
000003e0: c751 d1bc 4b63 50bd 4cba 963d acfb a7bd
000003f0: d51a 91bd 2ad0 a5bd 1645 00bd a350 81bd

fc.1.bias f4 [84]
-0.026291853 -0.012817218 0.10401186 -0.000776159 0.04641163 -0.025540391 0.07044253 -0.06308125
-0.02879682 0.124442205 -0.015027201 0.014669291 0.093013786 0.027247638 -0.06693584 0.002889853
-0.03438623 0.093659535 0.047932945 -0.049959704 0.0497534 -0.069990784 0.03271574 -0.0714243
-0.026050314 0.036841918 -0.026684664 0.048865307 -0.029939152 0.09244588 0.07514185 -0.04252935
0.053210564 -0.080227755 -0.07283473 -0.059625912 -0.03773922 -0.11402998 0.025716659 -0.046610337
0.009691329 -0.0020182298 -0.05117728 0.06921262 -0.0243209 0.027551038 0.02339334 -0.050908454
0.016504567 -0.0017757507 0.056964874 -0.012800479 -0.07909918 -0.05423678 -0.055214643 -0.019044874
0.083437495 -0.007510408 -0.10233694 0.022910498 0.05686682 -0.008884481 0.054533966 0.07986653
0.0998533 -0.06252686 -0.015180317 -0.05866663 -0.06354677 -0.10313792 0.004858399 -0.008223572
-0.039069746 -0.03165178 0.07273439 -0.045727413 0.050090354 -0.08409197 0.1248069 0.042856853
0.034576423 0.011461853 0.03471935 0.06349516
00000000: 0362 d7bc 4fff 51bc 2c04 d53d 2677 4bba
00000010: 1f1a 3e3d 153a d1bc 2c44 903d be30 81bd
00000020: 4fe7 ebbc 8edb fe3d a634 76bc 7757 703c
00000030: 037e be3d 7036 df3c a815 89bd b063 3d3b
00000040: 93d8 0cbd 92d0 bf3d 5655 443d 8ca2 4cbd
00000050: 39ca 4b3d 5457 8fbd f100 063d e746 92bd
00000060: 7867 d5bc 8de7 163d cc99 dabc fd26 483d
00000070: f442 f5bc 4454 bd3d f8e3 993d 4133 2ebd
00000080: 52f3 593d 734e a4bd 602a 95bd 4d3a 74bd
00000090: 7194 1abd 8d88 e9bd beab d23c 7bea 3ebd
000000a0: 61c8 1e3c 4744 04bb 449f 51bd 59bf 8d3d
000000b0: a03c c7bc b7b2 e13c 64a3 bf3c 6285 50bd
000000c0: 9634 873c 4ec0 e8ba 0054 693d 1ab9 51bc
000000d0: c0fe a1bd 6327 5ebd c028 62bd ff03 9cbc
000000e0: 47e1 aa3d de19 f6bb 0896 d1bd ccae bb3c
000000f0: 2fed 683d 3790 11bc 025f 5f3d 1091 a33d
00000100: e37f cc3d 150e 80bd ddb6 78bc 6c4c 70bd
00000110: cf24 82bd f939 d3bd 3433 9f3b 29bc 06bc
00000120: 9907 20bd 4ca5 01bd c5f5 943d ab4c 3bbd
00000130: 8b2b 4d3d 6938 acbd c39a ff3d ab8a 2f3d
00000140: 02a0 0d3d 7fca 3b3c e135 0e3d c009 823d

fc.2.weight f4 [10, 84]
0.0015908381 -0.1790044 -0.1443156 0.023059122 0.06160004 0.056836627 -0.017052643 -0.00019344951
-0.03003021 -0.10707855 -0.018457266 -0.027895413 -0.052450422 -0.059360106 0.009882429 0.08920313
0.04512145 0.032895774 -0.1286716 0.10175755 -0.10735133 0.11162383 -0.11286104 0.0060992013
0.18079522 0.13701098 0.06642524 -0.054521516 0.0886653 -0.13834712 -0.09604108 0.059668895
0.08298956 0.079414 0.020488694 -0.014659798 0.11382292 0.122163646 -0.08821072 -0.015539718
-0.015578472 0.016178189 0.090501525 -0.0740613 -0.03378358 -0.037424233 -0.09895413 -0.06351273
-0.020166568 -0.038606264 -0.04704916 -0.09904526 0.08617261 -0.10795283 0.08168829 0.040621985
-0.1560049 -0.0017160422 0.023180982 0.11376095 0.13360742 -0.005502079 -0.10105469 -0.0632122
-0.025246156 -0.06856299 0.098521955 -0.10729413 -0.10477415 0.02137894 -0.018573148 -0.030420624
-0.10260976 -0.17628466 -0.049222633 -0.12756461 -0.067363024 0.0492126 -0.055084366 -0.020231973
0.11032613 -0.10762203 0.0924966 0.029478388 -0.09838037 0.118993804 0.028991064 0.105871655
-0.16915898 0.11556527 0.09918037 0.12073428 0.010574237 0.07408052 0.08618732 0.14042842
0.10367533 -0.029127866 -0.11741419 0.06726523 -0.08664721 -0.14901355 -0.1022432 0.066085346
-0.13451847 -0.008936186 -0.06554006 0.16701043 -0.04713184 0.10889551 -0.1879017 -0.14117432
-0.13980523 -0.07315164 0.081511796 -0.046878353 -0.11043856 -0.020497544 0.048103105 0.118589155
0.02331822 0.12057855 -0.07780541 -0.14297466 -0.16410635 0.08872242 0.16253468 0.090973035
0.011163301 0.08455264 0.13761763 0.082072586 0.13676685 -0.07539161 0.13194919 -0.058763046
-0.1046163 0.10619026 0.09572996 0.027386352 0.0056844866 -0.03170855 -0.059750058 -0.021053208
-0.078281544 -0.092610724 -0.042780004 -0.030545304 -0.11126858 0.026556494 -0.11852091 -0.123396516
0.09580844 0.025971498 0.05248466 0.072705306 -0.034254495 -0.048095576 0.1307034 0.11813386
0.09740116 -0.021697748 0.10031776 -0.089760214 -0.12482182 -0.11391756 0.0801281 0.0743082
0.11133689 -0.13263093 0.07970732 0.09054226 0.11885194 0.0011138052 0.11311571 0.07624359
-0.04179323 0.00891382 0.06674083 0.033087544 -0.014363399 -0.08371474 0.07109363 -0.08254787
-0.04233192 0.056285705 -0.0807115 -0.0110753365 0.074047774 -0.032769207 -0.062204264 -0.10345803
-0.040313736 -0.0022018442 -0.12816584 0.057837524 -0.115642555 0.025386786 0.10919312 0.011876954
-0.11650602 -0.0022399803 -0.05534608 -0.11174187 0.026578315 -0.023666888 -0.07074886 0.15487854
0.1308108 -0.1593404 0.07544852 0.037817486 -0.0965798 -0.08640468 0.077023625 -0.07082124
0.0005384049 0.064528994 0.08535175 0.0030078948 0.12342489 -0.06980892 -0.15355472 0.056267243
-0.00067617995 -0.080094956 -0.07584692 0.09626788 0.093831584 -0.02097513 0.08709374 -0.038533222
0.093028314 -0.13591546 -0.03404704 -0.0008447692 0.0055303033 0.10495446 -0.08607807 0.029848551
0.14054684 -0.0075925323 -0.03767185 -0.14249676 0.03258301 -0.056276165 0.04394918 0.11445221
0.112639055 -0.0940554 -0.04155911 0.010631445 0.048008475 0.011409445 0.038875878 -0.13292861
00000000: ab83 d03a ee4c 37be 78c7 13be 7ce6 bc3c
00000010: 5350 7c3d 86cd 683d fcb1 8bbc b5d8 4ab9
00000020: ea01 f6bc 004c dbbd b133 97bc ec84 e4bc
00000030: 41d6 56bd 9523 73bd e9e9 213c 21b0 b63d
00000040: 45d1 383d b8bd 063d 7dc2 03be 4366 d03d
00000050: 04db dbbd 099b e43d b023 e7bd cfdb c73b
00000060: 6222 393e 9b4c 0c3e f509 883d f451 5fbd
00000070: 2796 b53d deaa 0dbe 30b1 c4bd 5f67 743d
00000080: 6ef6 a93d cfa3 a23d e8d7 a73c a62f 70bc
00000090: fe1b e93d ef30 fa3d d2a7 b4bd 4d9a 7ebc
000000a0: d93c 7fbc 1f88 843c dd58 b93d 73ad 97bd
000000b0: a760 0abd 274a 19bd 77a8 cabd f612 82bd
000000c0: 5c34 a5bc 9a21 1ebd 9fb6 40bd 3ed8 cabd
000000d0: 447b b03d 6016 ddbd 314c a73d 3d63 263d
000000e0: c0bf 1fbe d2ec e0ba 0be6 bd3c 80fb e83d
000000f0: 62d0 083e c94a b4bb c3f5 cebd 6675 81bd
00000100: 07d1 cebc c16a 8cbd e1c5 c93d 06bd dbbd
00000110: d493 d6bd e322 af3c b726 98bc ac34 f9bc
00000120: 1125 d2bd f783 34be ac9d 49bd 4ca0 02be
00000130: a0f5 89bd 2793 493d 25a0 61bd 86bd a5bc
00000140: abf2 e13d f068 dcbd db6e bd3d a97c f13c
00000150: a67b c9bd 06b3 f33d ab7e ed3c 3dd3 d83d
00000160: 0338 2dbe 7cad ec3d 141f cb3d 8943 f73d
00000170: 913f 2d3c 87b7 973d fa82 b03d 78cc 0f3e
00000180: bb53 d43d 909d eebc da76 f0bd 5ac2 893d
00000190: 1874 b1bd 0297 18be e264 d1bd c157 873d
000001a0: 36bf 09be 1569 12bc de39 86bd c804 2b3e
000001b0: 510d 41bd 9c04 df3d 4e69 40be 0090 10be
000001c0: 1a29 0fbe 87d0 95bd a8ef a63d 8403 40bd
000001d0: 9d2d e2bd 77ea a7bc c307 453d dfde f23d
000001e0: da05 bf3c e3f1 f63d 7158 9fbd f367 12be
000001f0: 7f0b 28be 1ab4 b53d 7e6f 263e 1250 ba3d
00000200: 47e6 363c ef29 ad3d a3eb 0c3e ac15 a83d
00000210: 9c0c 0c3e eb66 9abd b01d 073e 85b1 70bd
00000220: 1241 d6bd 477a d93d 120e c43d 5859 e03c
00000230: ee44 ba3b d3e0 01bd 7abc 74bd c777 acbc
00000240: 1352 a0bd b1aa bdbd 163a 2fbd 253a fabc
00000250: c8e0 e3bd 018d d93c 17bb f2bd 50b7 fcbd
00000260: 3737 c43d 2ec2 d43c 28fa 563d 85e6 943d
00000270: 714e 0cbd deff 44bd 1dd7 053e 2af0 f13d
00000280: 427a c73d 7abf b1bc 6673 cd3d 34d4 b7bd
00000290: 95a2 ffbd 9c4d e9bd 341a a43d e62e 983d
000002a0: 9804 e43d 67d0 07be 973d a33d 386e b93d
000002b0: a568 f33d 1afd 913a 36a9 e73d 9925 9c3d
000002c0: 612f 2bbd 450b 123c 6baf 883d ce86 073d
000002d0: 7654 6bbc a272 abbd 8999 913d dc0e a9bd
000002e0: 3c64 2dbd d78b 663d 124c a5bd 5475 35bc
000002f0: 5ca6 973d 0139 06bd e6c9 7ebd cee1 d3bd
00000300: 0420 25bd d14c 10bb e83d 03be 0ae7 6c3d
00000310: 01d6 ecbd f3f7 cf3c a4a0 df3d 8e97 423c
00000320: b59a eebd a2cc 12bb 92b2 62bd ecd8 e4bd
00000330: c4ba d93c 10e1 c1bc c7e4 90bd 7b98 1e3e
00000340: 44f3 053e 212a 23be c184 9a3d 82e6 1a3d
00000350: a1cb c5bd f0f4 b0bd 90be 9d3d ba0a 91bd
00000360: be23 0d3a c727 843d e6cc ae3d 1a20 453b
00000370: 30c6 fc3d fbf7 8ebd 733d 1dbe 7b78 663d
00000380: ab41 31ba d308 a4bd a155 9bbd 1828 c53d
00000390: c62a c03d 09d4 abbc 345e b23d 03d5 1dbd
000003a0: a185 be3d 6c2d 0bbe e974 0bbd 8073 5dba
000003b0: 8c37 b53b 5df2 d63d b349 b0bd f384 f43c
000003c0: 83eb 0f3e c7ca f8bb cc4d 1abd acea 11be
000003d0: c375 053d d681 66bd 0e04 343d ec65 ea3d
000003e0: 4eaf e63d 1ea0 c0bd e339 2abd 832f 2e3c
000003f0: 89a4 443d aeee 3a3c 503c 1f3d 701e 08be

fc.2.bias f4 [10]
-0.09060762 -0.029256996 0.1735395 0.0375777 0.13032901 -0.08804147 0.112735584 -0.11707206
-0.0917783 -0.11577271
00000000: 7d90 b9bd 5eac efbc 57b4 313e 13eb 193d
00000010: f874 053e 164f b4bd eae1 e63d 7ac3 efbd
00000020: 43f6 bbbd 3e1a edbd
